tf/checkpoint_30_epoch.pkl (torch, 64129 bytes, 12 tensors)

conv.0.weight f4 [10, 1, 2, 250]
0	0xbe26097b	-0.16214554
1	0x3d86ede1	0.065883406
2	0xbd21c627	-0.039495613
3	0x3c79626f	0.015221222
4	0x3c29f328	0.010372914
5	0xbd922aa6	-0.07137041
6	0xbd9bd20a	-0.07608421
7	0x3d812cc2	0.06307365
8	0x3d793e66	0.060850523
9	0x3cf8752b	0.030329308
10	0x3d5efd0d	0.054440547
11	0xbdcf8bf3	-0.10134115
12	0x3d646b24	0.05576624
13	0x3c94f8de	0.018185075
14	0xbd12cdcb	-0.03584079
15	0x3df07302	0.11740686
16	0xbb37b93c	-0.0028033992
17	0xbc1b6d2d	-0.009486479
18	0xbe199f4e	-0.15002176
19	0xbcc54467	-0.024080468
20	0xbcd7facc	-0.026364706
21	0xbc28555d	-0.010274258
22	0xbd99f099	-0.075165935
23	0x3c723df6	0.01478528
24	0xbd412891	-0.047157828
25	0xbcfbf8b1	-0.030758234
26	0x3b2057c3	0.0024466373
27	0x3d13b3fb	0.036060315
28	0x3dd00ea4	0.101590425
29	0xbcc73807	-0.024318708
30	0x3c0f4870	0.008745298
31	0x3cef57be	0.029216643
32	0xbdacffa0	-0.08447194
33	0xbce6cf68	-0.02817507
34	0x3d65b56d	0.056081224
35	0x3b3fe73f	0.002928212
36	0xbd991dee	-0.07476412
37	0xbd708156	-0.058717094
38	0x3b0ff44e	0.0021965685
39	0x3c94dd75	0.018172005
40	0x3bb3a677	0.0054824906
41	0xbdd69e4e	-0.10479413
42	0x3cadb8a3	0.021206206
43	0xbd3d63df	-0.046237823
44	0x3d1e7174	0.038682416
45	0x3bb7cce0	0.00560914
46	0x3d85abbb	0.065268956
47	0xbd634795	-0.055488188
48	0xbce0d5a4	-0.027445622
49	0xbe21cdf2	-0.15801218
50	0xbbafc629	-0.0053641987
51	0xbd8f0bcb	-0.06984671
52	0xbda75861	-0.08171154
53	0x3d03ab8d	0.032146025
54	0xbd5cb357	-0.05388197
55	0x3d02942b	0.031879585
56	0xbb507b12	-0.0031811637
57	0x3e005103	0.12530904
58	0x3c059c5a	0.008154953
59	0x3bf27862	0.0073996047
60	0xbdc55719	-0.09635753
61	0x3d62e67d	0.055395592
62	0xbd186fca	-0.037215985
63	0xbe3d9ef6	-0.1851767
64	0xbc565dee	-0.013083918
65	0xbda43689	-0.08018214
66	0xbc7c35a6	-0.01539365
67	0xbe1fcea5	-0.15606172
68	0xbb0e48c6	-0.0021710857
69	0x3c0ee5bd	0.008721766
70	0xbdbd7351	-0.092505105
71	0xbc6f243d	-0.014596042
72	0x3d5ec932	0.054391094
73	0x3d4b1dca	0.049588956
74	0xbb3ef7bb	-0.0029139358
75	0xbdbb0b65	-0.09133033
76	0xbd43095d	-0.04761635
77	0xbe33b2e8	-0.17548716
78	0xbd081ef3	-0.03323264
79	0xbd8e4e5e	-0.06948541
80	0xbc71f39e	-0.0147675555
81	0xbd2b02e1	-0.041750792
82	0x3cea1cda	0.02857821
83	0xbbb5aef3	-0.005544537
84	0x3dbae8ed	0.09126458
85	0xbdd36d65	-0.103236
86	0xbe21a832	-0.15786818
87	0xbd86030d	-0.06543551
88	0xbdcf2896	-0.10115163
89	0xbd729319	-0.059222315
90	0x3dd5d697	0.104413204
91	0x3cc150af	0.023598043
92	0x3bdff45b	0.0068345494
93	0x3dbc5eb7	0.09197753
94	0xbe4860f6	-0.19568238
95	0x3d2a3c79	0.041561577
96	0x3c79f7e8	0.015256859
97	0xbd0546d5	-0.032538254
98	0x3e41201c	0.18859905
99	0x3e07ba43	0.13254647
100	0x3d8378dc	0.064195365
101	0xbd5a677d	-0.05332135
102	0x3d4af059	0.04954562
103	0x3e001bdb	0.12510626
104	0xbd2c62e0	-0.042086482
105	0xbe2936e3	-0.16524844
106	0x3e141850	0.144624
107	0xbd8d7ac1	-0.06908179
108	0x3d0b28fc	0.033974633
109	0x3d15d4ba	0.036579825
110	0xbce53c25	-0.02798278
111	0xbc8d770d	-0.017268682
112	0xbdaa9d0e	-0.08330737
113	0xbdb126b5	-0.08649961
114	0xbd00dd71	-0.031461183
115	0xbb0fdaae	-0.0021950412
116	0x3e1d9440	0.15388584
117	0x3ddde1d5	0.1083409
118	0xbdb8ac76	-0.09017269
119	0x3e462946	0.19351682
120	0xbdf13fcc	-0.117797464
121	0xbdbcddfe	-0.09222029
122	0xbe765403	-0.24055485
123	0x3d4082c5	0.04699971
124	0x3e029fad	0.12756224
125	0x3cff2133	0.03114376
126	0xbd748023	-0.059692513
127	0xbe50899e	-0.20364997
128	0xbd95537c	-0.07291314
129	0xbe02d1bb	-0.12775318
130	0xbcae9456	-0.021310966
131	0xbd935cf3	-0.07195463
132	0xbd234d89	-0.039868865
133	0xbd31d82c	-0.04341905
134	0x3c8e7899	0.01739149
135	0xbd1d53ae	-0.03840988
136	0x3e1d9719	0.1538967
137	0x3e105e3e	0.1409845
138	0xbc927dcc	-0.01788225
139	0xbe36b42e	-0.1784217
140	0x3d60a9c5	0.054849405
141	0x3d74e729	0.059790764
142	0xbe06870c	-0.13137454
143	0x3cb6651f	0.022265015
144	0x3d262ef0	0.040572107
145	0xbd7179d0	-0.05895406
146	0xbe32e6ff	-0.1747093
147	0xbe0af90a	-0.13571563
148	0xbd4372d0	-0.047716916
149	0x3dc7100b	0.09719857
150	0x3d8a141e	0.06742118
151	0x3db60511	0.08887685
152	0xbe493f3a	-0.19653025
153	0xbd60e1eb	-0.054902952
154	0xbd85e38e	-0.06537543
155	0x3d51bd34	0.05120583
156	0xbde94a27	-0.113910966
157	0xbdab1739	-0.08354039
158	0xbd15c20b	-0.036562007
159	0xbd53425c	-0.051576957
160	0x3d0ed073	0.03486676
161	0xbe14b44d	-0.14521904
162	0xbd0ca8ca	-0.034340657
163	0xbdf88818	-0.12135333
164	0x3ddf86ba	0.10914369
165	0xbe371e71	-0.17882706
166	0xbd0f49f5	-0.03498264
167	0xbed0b653	-0.40764102
168	0xbc990424	-0.018678732
169	0x3a95c1d2	0.0011425561
170	0xbd2a5e28	-0.0415937
171	0xbd55511e	-0.052079313
172	0xbe4a2371	-0.19740082
173	0xbe8c91ae	-0.27454895
174	0x3d9d0f09	0.07668883
175	0xbddb383b	-0.107040845
176	0x3dba60c8	0.09100491
177	0xbe099e34	-0.13439256
178	0xbd21171a	-0.039328672
179	0xbe4c701f	-0.19964646
180	0x3da83ef1	0.0821513
181	0xbe0968b4	-0.13418847
182	0x3d11e1d8	0.035615772
183	0xbe038fbe	-0.12847802
184	0xbc1b0a05	-0.009462838
185	0xbc4fcabb	-0.012682612
186	0xbd7f6a19	-0.062357042
187	0xbe592b17	-0.21207844
188	0x3e7f16db	0.24911062
189	0x3e40d3f9	0.18830861
190	0x3dcf6130	0.10125959
191	0xbe9e65ae	-0.3093695
192	0x3ea694bc	0.3253535
193	0xbe89d998	-0.26923823
194	0xbd8d0795	-0.06886212
195	0xbdbb57a6	-0.09147577
196	0xbe187733	-0.14889221
197	0xbbf2e6e6	-0.007412779
198	0x3e071914	0.1319316
199	0x3e3d9303	0.18513112
200	0xbd34eacc	-0.044169232
201	0x3e0fde58	0.14049661
202	0xbcd73528	-0.026270464
203	0xbda17c5c	-0.07885048
204	0xbcd6d43a	-0.026224244
205	0xbd42b383	-0.047534477
206	0x3d11df6a	0.035613455
207	0x3b2b2700	0.0026115775
208	0x3daf78b2	0.08567943
209	0x3db3b864	0.08775404
210	0x3d8bcb02	0.0682583
211	0x3d1179dc	0.035516605
212	0x3e7b1fc8	0.24523842
213	0xbe0f15e7	-0.13973199
214	0x3e8649ff	0.2622833
215	0xbe19d0e7	-0.15021096
216	0xbe744028	-0.23852599
217	0xbe17c893	-0.14822607
218	0xbd7e424a	-0.062074937
219	0xbe2032b8	-0.15644348
220	0x3e272ae2	0.16324952
221	0xbc5744cc	-0.013138961
222	0x3dc37943	0.09544613
223	0x3e199a5e	0.15000293
224	0xbdb3a501	-0.08771706
225	0xbe119b2e	-0.14219353
226	0x3e012fe8	0.12615931
227	0x3e6849b7	0.2268437
228	0xbe913d93	-0.2836729
229	0xbe80c020	-0.2514658
230	0xbe0dbaa6	-0.13840732
231	0x3d747168	0.059678465
232	0xbc5ed30a	-0.01360012
233	0xbdc1cfe9	-0.09463484
234	0xbd0a6e85	-0.033796806
235	0x3de32f7e	0.11093043
236	0xbd56d692	-0.052450724
237	0x3ccabf07	0.024749292
238	0x3e018e4c	0.12651938
239	0xbe93f7a5	-0.28899875
240	0xbd2bb8ca	-0.041924275
241	0xbe696654	-0.22792941
242	0xbd224d97	-0.039624777
243	0xbe63aa9d	-0.22233053
244	0xbe6719df	-0.22568463
245	0x3ecf035b	0.40432248
246	0x3d8bc6f5	0.068250574
247	0xbe234570	-0.15944457
248	0x3d35402a	0.044250645
249	0xbdb703e1	-0.08936287
250	0xbe29751d	-0.16548581
251	0x3d3a874c	0.045539185
252	0xbd1fd6e4	-0.039023295
253	0xbd00cdc3	-0.03144623
254	0x3cb2cd68	0.021826461
255	0xbd1d8285	-0.03845455

conv.0.bias f4 [10]
0	0xbfa22c92	-1.2669852
1	0xc012d647	-2.2943285
2	0xbf97f99c	-1.187305
3	0xbf99a408	-1.2003183
4	0xbf9fdd26	-1.2489364
5	0xbfbb3d27	-1.4628037
6	0xbf943f64	-1.1581845
7	0xbf8a336a	-1.079694
8	0xbfdf588e	-1.74489
9	0xbfae371d	-1.3610569

fc.weight f4 [2, 10]
0	0x3e5c3899	0.21505965
1	0xbe593d7d	-0.21214862
2	0xbe212a59	-0.1573881
3	0x3d28979f	0.041160222
4	0x3c1807b5	0.009279181
5	0xbd8afcd7	-0.067865066
6	0x3d9e57bc	0.07731578
7	0x3e39e15d	0.18152376
8	0x3e0adb59	0.13560237
9	0x3e11d57c	0.14241594
10	0x3e767a01	0.24069978
11	0xbe4686be	-0.19387338
12	0x3e9c0237	0.3047044
13	0xbc73b07b	-0.014873619
14	0xbca34a03	-0.019932752
15	0xbe9c552b	-0.30533728
16	0x3df2c7ba	0.11854501
17	0x3e1b4be0	0.15165663
18	0xbc984e35	-0.01859198
19	0x3e2ab2de	0.16669795

fc.bias f4 [2]
0	0xbe0ebe2e	-0.13939735
1	0xbc8de6c6	-0.017321955

exp_avg f4 [10, 1, 2, 250]
0	0xbbb47708	-0.0055073537
1	0x39e2c3bc	0.00043251913
2	0xb942b5d0	-0.00018569012
3	0xb7ad6780	-2.0671403e-05
4	0xba06c7f2	-0.00051414885
5	0xb9da2f96	-0.00041615654
6	0x36801a60	3.8177677e-06
7	0x39f20b10	0.0004616608
8	0x39f051b7	0.0004583725
9	0x39a73a9c	0.0003189639
10	0x38f13d50	0.00011503196
11	0xba824b04	-0.0009940569
12	0x3971b41a	0.00023050644
13	0x39daeaed	0.00041755234
14	0xba308f4b	-0.00067352195
15	0x393a9be8	0.00017796422
16	0x39e6e2d8	0.0004403803
17	0xba1f59ff	-0.0006078779
18	0x394b1162	0.00019366064
19	0xba4b83ee	-0.00077634945
20	0x39d67306	0.0004090296
21	0x3916e6f9	0.00014391159
22	0xb9a1e075	-0.00030875547
23	0x39ad09f4	0.00033004547
24	0x3a8e65e9	0.0010864112
25	0x3a3615cf	0.0006945999
26	0x3b1e34f9	0.002414046
27	0xbad4de12	-0.0016240499
28	0xbb4eaf1b	-0.0031537476
29	0x3a7d0622	0.0009652098
30	0xba9f8ce0	-0.0012172721
31	0x3a353926	0.0006913118
32	0x39e518b5	0.00043696692
33	0x3830beb0	4.213926e-05
34	0xba259522	-0.0006316473
35	0xb904066c	-0.00012590893
36	0x39bd4b8f	0.00036105185
37	0xb719fe00	-9.17865e-06
38	0xb9aab108	-0.00032556825
39	0xba1ee9e0	-0.0006062072
40	0xb90e76f0	-0.00013586483
41	0x39a0f2da	0.00030698517
42	0x38b47691	8.6051536e-05
43	0xb82ea3e0	-4.1637453e-05
44	0x39a85c78	0.00032112352
45	0x38dc2bd6	0.000104985826
46	0xba597705	-0.00082956284
47	0xb9af9be1	-0.0003349474
48	0x3997b8d4	0.00028938672
49	0xb90f2747	-0.00013652175
50	0x39dd41d1	0.00042201442
51	0xb947d344	-0.00019056821
52	0xba72f3e8	-0.0009267912
53	0x3991c33c	0.00027802016
54	0xb9903e2f	-0.0002751215
55	0x3a210648	0.00061425986
56	0xba0dabae	-0.00054043054
57	0x3ac081c8	0.0014687115
58	0x39b1f946	0.00033945794
59	0x383d616c	4.5151843e-05
60	0x396fe0af	0.00022876517
61	0x39b39be6	0.00034257694
62	0xb9262660	-0.0001584529
63	0xb7ff64c0	-3.0445284e-05
64	0xb91cfce0	-0.00014971523
65	0xb9da0e6c	-0.00041590945
66	0x393117cb	0.00016888899
67	0x38bb6f62	8.9376015e-05
68	0xb92ee240	-0.00016678218
69	0x360a1b48	2.0579482e-06
70	0xb9cd8640	-0.0003920067
71	0xb89553f4	-7.120511e-05
72	0xb93dcc0a	-0.00018100455
73	0x38ad46ef	8.262495e-05
74	0x3859618a	5.1827672e-05
75	0x36be0752	5.6632935e-06
76	0xba173b5a	-0.0005769037
77	0x396711d9	0.00022036525
78	0xb9914b9a	-0.00027712883
79	0x378c20bf	1.670455e-05
80	0xb9adeee1	-0.0003317511
81	0x391e3e30	0.00015091221
82	0xb90de4f4	-0.000135321
83	0x3a960129	0.0011444438
84	0xbaeba126	-0.0017977103
85	0xba00fa96	-0.0004920153
86	0x39c22525	0.00037030238
87	0x3a1773ef	0.00057774683
88	0xb9bc10be	-0.00035870628
89	0x39975a6f	0.00028868343
90	0x390bfd0e	0.00013350343
91	0xb8c10238	-9.2033704e-05
92	0x391a30b2	0.00014704725
93	0x398a403b	0.00026369267
94	0xb91a7de8	-0.00014733488
95	0xb8c0c8f8	-9.192707e-05
96	0xb7885180	-1.6250415e-05
97	0x398364d8	0.00025061402
98	0xb9023979	-0.00012419176
99	0xb9eca3f5	-0.00045135585
100	0xb98eb8c0	-0.00027222
101	0xb984428a	-0.00025226577
102	0xba1448c2	-0.0005656594
103	0xb94d382c	-0.00019571249
104	0x39b4f368	0.00034513627
105	0x397a8574	0.00023891573
106	0x38c6ca93	9.479108e-05
107	0x3893a8cf	7.040949e-05
108	0x3a310d02	0.00067539525
109	0xb9cfc8b1	-0.00039631643
110	0x39ed2a6d	0.00045235772
111	0xba22b3d3	-0.00062066055
112	0x3aa3712d	0.0012469642
113	0xbabb9fc7	-0.0014314585
114	0xba0c430e	-0.0005350568
115	0xb9fae2cd	-0.00047852696
116	0xba9f960b	-0.0012175454
117	0xba2788f8	-0.00063909544
118	0x39807e48	0.0002450815
119	0x3aa500f1	0.0012588782
120	0x39acdb44	0.00032969762
121	0xb82b0a20	-4.0779007e-05
122	0xba1a36b6	-0.00058827864
123	0xba376337	-0.000699568
124	0x3a50bd90	0.00079628173
125	0xb9dff4de	-0.00042716315
126	0xba115dae	-0.00055452704
127	0xb95352ad	-0.00020153327
128	0x38f15a84	0.00011508635
129	0x3a38d5e2	0.0007050914
130	0xba332b14	-0.0006834727
131	0xb98b5782	-0.00026577344
132	0x3824791a	3.921343e-05
133	0x3a283ab7	0.00064174406
134	0xb9cf9459	-0.00039592644
135	0xba279ea0	-0.00063941814
136	0x39d4fadc	0.00040622696
137	0xba128565	-0.00055893353
138	0xb99315ae	-0.00028054178
139	0x3a3430db	0.0006873735
140	0xbaff79ba	-0.0019491233
141	0x3952a6fa	0.00020089364
142	0xba82bfcc	-0.0009975373
143	0x3a8868e8	0.0010407241
144	0x3ac77211	0.001521649
145	0x3822e780	3.883941e-05
146	0x3b26f79c	0.0025477177
147	0x3a107b63	0.000551155
148	0x39065b05	0.00012813143
149	0xba9494c3	-0.0011335838
150	0xba9958f2	-0.0011699481
151	0x39b99b71	0.00035401763
152	0x39c8ba76	0.00038285897
153	0x379221b4	1.742025e-05
154	0x3958d3c6	0.00020678257
155	0x395335e0	0.00020142598
156	0x3ab1dc14	0.0013569617
157	0xb8982ce6	-7.256288e-05
158	0xba0a25cb	-0.0005269914
159	0x39b4e75f	0.0003450466
160	0xba08d577	-0.0005219797
161	0x39e7fdb8	0.0004424879
162	0xb8f94f35	-0.00011887999
163	0xb8b4956e	-8.610902e-05
164	0xb81a3f62	-3.677549e-05
165	0xb94e2e31	-0.00019662899
166	0x38f98236	0.00011897499
167	0xb81544fa	-3.5588608e-05
168	0xb9361714	-0.0001736547
169	0xba0f7841	-0.00054729363
170	0xb9349894	-0.00017222977
171	0xb9936e7d	-0.00028120345
172	0xb998e5e1	-0.00029162972
173	0xba204d62	-0.00061150466
174	0xba3d27cb	-0.00072157074
175	0x3abaa450	0.0014239643
176	0x3ac09e88	0.0014695683
177	0xb96845a4	-0.00022151187
178	0xb994396d	-0.00028271545
179	0xb8befe98	-9.107328e-05
180	0x391e2bcf	0.00015084374
181	0x39b135d2	0.0003380017
182	0x393f00db	0.00018215498
183	0xb9206ba2	-0.00015298885
184	0x3888a25f	6.515229e-05
185	0xb996ed30	-0.00028786948
186	0xb7c01358	-2.2897191e-05
187	0xb8935c95	-7.026751e-05
188	0x39e0bb59	0.00042864194
189	0xb84d1980	-4.8899557e-05
190	0xb6e5a370	-6.8437585e-06
191	0xb84e968c	-4.9254435e-05
192	0x38b2a958	8.519244e-05
193	0xb954fd81	-0.00020312333
194	0x3993e77f	0.00028210503
195	0x39051faa	0.00012695664
196	0x385440e2	5.0605166e-05
197	0x38ffdd9a	0.00012200624
198	0xb950fde8	-0.00019931013
199	0xb8a0f601	-7.675216e-05
200	0xb72f0680	-1.0432326e-05
201	0x397e7059	0.0002426518
202	0xb99e2b68	-0.0003016845
203	0x396f41af	0.00022817285
204	0xb926d900	-0.00015911832
205	0xb7863974	-1.6000798e-05
206	0x3909b6aa	0.00013133386
207	0xb94353d0	-0.00018627872
208	0xb94f5760	-0.00019773608
209	0xb930f0f4	-0.0001687443
210	0xb8eb938c	-0.00011233156
211	0xb8ea7924	-0.00011180554
212	0x3918b732	0.00014564095
213	0x37c93e70	2.3990142e-05
214	0xb88b5a14	-6.644815e-05
215	0x39609456	0.00021417564
216	0x37fd3dc0	3.0188705e-05
217	0x3956886e	0.00020459454
218	0x38c6f1f2	9.4864416e-05
219	0xb9285161	-0.00016052045
220	0x3a9405d7	0.0011293244
221	0xb995d6d8	-0.00028579566
222	0x3a87f0fa	0.0010371499
223	0x39df2315	0.00042560013
224	0xb8b4d59c	-8.622857e-05
225	0xb9c5330a	-0.00037612795
226	0x39f07354	0.00045862293
227	0xba12f775	-0.0005606332
228	0x3a21c8aa	0.0006171564
229	0x39efb506	0.00045720505
230	0x39f27317	0.00046243586
231	0xb995d616	-0.00028579
232	0xba0d324f	-0.000538622
233	0xb5b9a7c0	-1.3832396e-06
234	0x3a577d0b	0.0008220232
235	0x3a3fdda6	0.00073191
236	0xba73a255	-0.0009293904
237	0x39720fca	0.000230848
238	0x383a4df5	4.441846e-05
239	0x39e2ac2e	0.00043234363
240	0xba0ee75b	-0.0005451345
241	0xba28d68c	-0.00064406614
242	0x3a299f82	0.0006470607
243	0x3a15cf39	0.00057147775
244	0xbab58fcc	-0.0013852059
245	0x3a07f3aa	0.000518615
246	0xba239386	-0.0006239939
247	0x399bd092	0.000297193
248	0x39abbf84	0.00032758352
249	0xb7642f28	-1.3600838e-05
250	0x3c9c43ec	0.019075356
251	0xb94d83d8	-0.00019599439
252	0xbb01a7b5	-0.00197838
253	0xba8255b4	-0.0009943754
254	0xb9c89dfa	-0.00038264674
255	0xba1a754e	-0.00058921135

exp_avg_sq f4 [10, 1, 2, 250]
0	0x3b908e97	0.0044115293
1	0x38f0d494	0.000114836876
2	0x38c96501	9.60324e-05
3	0x3808e769	3.2640444e-05
4	0x3793eb0e	1.7633221e-05
5	0x36e56d0e	6.8374275e-06
6	0x37380866	1.096921e-05
7	0x36c7074c	5.9315116e-06
8	0x3611a733	2.1704006e-06
9	0x376caea9	1.4107362e-05
10	0x38ee13f8	0.00011352444
11	0x382652c7	3.9654577e-05
12	0x379ac673	1.845064e-05
13	0x36aa9feb	5.0850117e-06
14	0x37d17f82	2.4974117e-05
15	0x37335318	1.0688578e-05
16	0x39c522b8	0.00037600636
17	0x3773f29d	1.45404165e-05
18	0x37a1c65d	1.9285066e-05
19	0x38687bfe	5.5428587e-05
20	0x38ae7c6e	8.3201434e-05
21	0x3767f490	1.3825615e-05
22	0x3612c855	2.1872304e-06
23	0x37ca56d9	2.4120718e-05
24	0x36a2f93a	4.85699e-06
25	0x375eb5c8	1.3274555e-05
26	0x38434b48	4.6561734e-05
27	0x37cedd30	2.4660112e-05
28	0x37a8ee95	2.0138259e-05
29	0x364c3468	3.0428873e-06
30	0x3829cbb2	4.0482446e-05
31	0x37b117a1	2.1111047e-05
32	0x37b10f44	2.1107153e-05
33	0x382e74ae	4.15935e-05
34	0x38892ab1	6.540621e-05
35	0x3822589f	3.8706345e-05
36	0x389ed6f4	7.574065e-05
37	0x38f310b3	0.000115902534
38	0x3914a0f1	0.00014174335
39	0x3797ca3a	1.8094772e-05
40	0x3831ddd7	4.2406693e-05
41	0x370a5daf	8.247253e-06
42	0x362f585a	2.612846e-06
43	0x38911e24	6.919753e-05
44	0x3a192647	0.00058421906
45	0x376bcea2	1.4055202e-05
46	0x39bddbae	0.00036212563
47	0x388ad90d	6.620782e-05
48	0x399e8df6	0.00030241878
49	0x38d037f1	9.928633e-05
50	0x37f86057	2.9608766e-05
51	0x379b7042	1.8529714e-05
52	0x3b1ecf6c	0.002423252
53	0x3946a5fe	0.00018944588
54	0x388214c8	6.202754e-05
55	0x3a8780d5	0.0010338078
56	0x39289cdd	0.00016080165
57	0x3bebe6a8	0.007199127
58	0x37e4aa06	2.7258891e-05
59	0x372b4baf	1.0210016e-05
60	0x36a2f0fb	4.85603e-06
61	0x382a3627	4.058159e-05
62	0x389973c7	7.317174e-05
63	0x37426087	1.1585776e-05
64	0x39c2b722	0.00037139008
65	0x3993ddac	0.00028203183
66	0x3720e102	9.589132e-06
67	0x3684e6cb	3.9607744e-06
68	0x390c09f6	0.00013355151
69	0x36e33b82	6.772055e-06
70	0x38b90dc0	8.8240486e-05
71	0x3811008c	3.4571203e-05
72	0x390dfa7f	0.00013540125
73	0x37492b12	1.1990562e-05
74	0x37987d64	1.8178202e-05
75	0x375190b2	1.249106e-05
76	0x37262565	9.903078e-06
77	0x36e70821	6.885283e-06
78	0x363ce4b7	2.8147313e-06
79	0x361ef9bd	2.3689201e-06
80	0x35c60f3a	1.4756581e-06
81	0x36a2bacd	4.8497227e-06
82	0x36a92d99	5.0419007e-06
83	0x36ba8e40	5.559792e-06
84	0x379933f3	1.8263212e-05
85	0x36da8174	6.5119766e-06
86	0x36be0137	5.6625827e-06
87	0x36bb02ca	5.573359e-06
88	0x3712a8fb	8.741622e-06
89	0x36869cc0	4.0117593e-06
90	0x37308987	1.0522438e-05
91	0x36a889c6	5.022829e-06
92	0x36ca96e9	6.0376374e-06
93	0x36cabb3b	6.0418656e-06
94	0x368f0375	4.2621346e-06
95	0x36d0159a	6.201398e-06
96	0x36e46ce0	6.807604e-06
97	0x3687b29c	4.0441064e-06
98	0x36837ccd	3.918633e-06
99	0x36af525a	5.2249934e-06
100	0x361ff97c	2.3838065e-06
101	0x36722809	3.6084114e-06
102	0x375cb0c9	1.3154183e-05
103	0x370e4f61	8.482341e-06
104	0x361be056	2.322738e-06
105	0x36780238	3.6956171e-06
106	0x36445ede	2.9261496e-06
107	0x369a426b	4.5972897e-06
108	0x37cedb00	2.4659093e-05
109	0x387f5c9d	6.088299e-05
110	0x37991699	1.8249544e-05
111	0x38ca001e	9.6321324e-05
112	0x372308d6	9.717614e-06
113	0x38159387	3.5661764e-05
114	0x374f15ef	1.2343268e-05
115	0x37ac01ac	2.0504776e-05
116	0x37f957ae	2.9723942e-05
117	0x38600a38	5.341528e-05
118	0x386ab676	5.5959877e-05
119	0x397177f8	0.00023028243
120	0x36f5f696	7.3302754e-06
121	0x37a07236	1.912667e-05
122	0x37fde8a1	3.0268277e-05
123	0x388c7772	6.697969e-05
124	0x382bbeba	4.0947205e-05
125	0x36f8fc01	7.420313e-06
126	0x389f7da0	7.60511e-05
127	0x364c4ab3	3.044185e-06
128	0x37796d4c	1.4867004e-05
129	0x370068ce	7.653796e-06
130	0x381b235e	3.6987818e-05
131	0x37295984	1.0094027e-05
132	0x360c7e35	2.0935088e-06
133	0x37771418	1.4727026e-05
134	0x36ecad4c	7.0535225e-06
135	0x37349708	1.0764001e-05
136	0x3707f8b6	8.104535e-06
137	0x37404875	1.1460962e-05
138	0x370d52ec	8.423562e-06
139	0x37b1725e	2.11533e-05
140	0x37f917a4	2.9694122e-05
141	0x374b1926	1.2105598e-05
142	0x36ce5f3f	6.1503665e-06
143	0x37c087b8	2.2951383e-05
144	0x37e192f0	2.6890513e-05
145	0x37daf131	2.6099939e-05
146	0x38b2230a	8.494228e-05
147	0x376326de	1.3539304e-05
148	0x36fb0a68	7.4815944e-06
149	0x397d22fb	0.00024140991
150	0x38c306a2	9.29956e-05
151	0x37a3b808	1.951681e-05
152	0x37495b78	1.200183e-05
153	0x36843781	3.940368e-06
154	0x382e9df5	4.163194e-05
155	0x3754b2a5	1.2677779e-05
156	0x39204a27	0.00015286413
157	0x36bd09c7	5.633777e-06
158	0x37dbea67	2.6215987e-05
159	0x371ef664	9.474901e-06
160	0x383a1bb9	4.4371674e-05
161	0x370515d9	7.932505e-06
162	0x36affbba	5.2447112e-06
163	0x371ade38	9.230855e-06
164	0x36c11a89	5.7549373e-06
165	0x3752c1c7	1.2562093e-05
166	0x36d966f9	6.4790916e-06
167	0x3667d1e3	3.4543853e-06
168	0x36e68831	6.870389e-06
169	0x36903dbd	4.2987217e-06
170	0x360a687d	2.0624423e-06
171	0x368a694a	4.1249777e-06
172	0x36310035	2.6375176e-06
173	0x36cc2985	6.0845073e-06
174	0x36daf55d	6.5254703e-06
175	0x375dfe40	1.3231824e-05
176	0x375fcabf	1.3339041e-05
177	0x36d4ab05	6.3380016e-06
178	0x364a7eea	3.017422e-06
179	0x35e41033	1.6992038e-06
180	0x364c6ff9	3.0463545e-06
181	0x360e7b59	2.1231447e-06
182	0x37156e0f	8.906717e-06
183	0x36a14ea2	4.807328e-06
184	0x37065d8d	8.008804e-06
185	0x3747dd15	1.1912799e-05
186	0x36a9c597	5.059595e-06
187	0x3734deec	1.0780739e-05
188	0x379d2c3b	1.8736455e-05
189	0x36a334f2	4.863942e-06
190	0x3689cac0	4.1065214e-06
191	0x36cc0bc9	6.0810457e-06
192	0x3784cc3f	1.5830736e-05
193	0x38252771	3.93758e-05
194	0x38e10c81	0.00010731165
195	0x36f044fd	7.1605887e-06
196	0x36b68ab5	5.4401703e-06
197	0x37381aa0	1.0973454e-05
198	0x3763e2be	1.3583047e-05
199	0x358b1686	1.0362862e-06
200	0x35e87b48	1.7321227e-06
201	0x36f56f4d	7.314526e-06
202	0x36caf080	6.048067e-06
203	0x3642dab6	2.903556e-06
204	0x36a8124b	5.0089197e-06
205	0x366fb670	3.5719968e-06
206	0x368c471b	4.180603e-06
207	0x369dba71	4.7006693e-06
208	0x3674cfe6	3.6479846e-06
209	0x36399df0	2.765908e-06
210	0x3638a07c	2.751155e-06
211	0x36affe17	5.2449864e-06
212	0x36d799c5	6.4254004e-06
213	0x365a15ac	3.2497146e-06
214	0x36c04ec0	5.7312136e-06
215	0x369d6c52	4.6915748e-06
216	0x358b21c2	1.0366132e-06
217	0x36a03d20	4.7754875e-06
218	0x369c5fe9	4.6603277e-06
219	0x35bfff50	1.4304915e-06
220	0x361d331d	2.3424575e-06
221	0x37167ab7	8.9692685e-06
222	0x35c7d68e	1.4889099e-06
223	0x36fd5afc	7.5505795e-06
224	0x36998eaa	4.5763636e-06
225	0x368073de	3.828186e-06
226	0x3688fe8e	4.08275e-06
227	0x36239082	2.4373007e-06
228	0x36683b70	3.4605291e-06
229	0x35f23e1a	1.8048479e-06
230	0x36943acc	4.4175886e-06
231	0x35a2f891	1.2142283e-06
232	0x370aa36f	8.263493e-06
233	0x364b4eac	3.029515e-06
234	0x37067218	8.013587e-06
235	0x373a38a1	1.1099649e-05
236	0x36c0a752	5.7415245e-06
237	0x371f9a01	9.512995e-06
238	0x3610a24c	2.1552141e-06
239	0x368d41f2	4.2098045e-06
240	0x36c6c33d	5.9235886e-06
241	0x3643457a	2.9097705e-06
242	0x3621ed86	2.4129126e-06
243	0x35bcc080	1.4063116e-06
244	0x3684f495	3.9623797e-06
245	0x3611be37	2.1717403e-06
246	0x363523d8	2.6991966e-06
247	0x35ca3e59	1.5068318e-06
248	0x36ca1ef0	6.0236707e-06
249	0x36f40559	7.272389e-06
250	0x3b6ef0bd	0.003645941
251	0x38cb45ce	9.6927964e-05
252	0x38865ae3	6.406547e-05
253	0x37928981	1.7468587e-05
254	0x387f693a	6.0894738e-05
255	0x37e22f76	2.69634e-05

exp_avg f4 [10]
0	0x3a55c5de	0.00081547897
1	0x3a077b86	0.0005168248
2	0x3b58adb4	0.003306252
3	0xba86e247	-0.0010290825
4	0x3a2b3566	0.00065310893
5	0x38ca4ce0	9.64643e-05
6	0xb72a3f60	-1.0147545e-05
7	0xb9281c04	-0.00016032165
8	0xbad6d710	-0.0016390998
9	0xb9f49419	-0.00046649648

exp_avg_sq f4 [10]
0	0x366d6e25	3.5379865e-06
1	0x36542bf6	3.161605e-06
2	0x3a578555	0.0008221467
3	0x373056c5	1.051062e-05
4	0x3654f28b	3.173164e-06
5	0x397385db	0.00023224151
6	0x36cd4e8b	6.1186197e-06
7	0x366c57d6	3.5217868e-06
8	0x390dfe7d	0.00013541612
9	0x368e1f44	4.2355696e-06

exp_avg f4 [2, 10]
0	0xbe8896ce	-0.26677555
1	0xbe365e06	-0.17809305
2	0xba26fd50	-0.0006370144
3	0x3dbdebc2	0.09273483
4	0x3c5faf16	0.013652584
5	0x3c9353f6	0.017984372
6	0xbd7bbca9	-0.061459217
7	0xbda110bb	-0.07864519
8	0x397ff7bc	0.00024410983
9	0x3e9b8a64	0.3037902
10	0x3e8896cc	0.2667755
11	0x3e365e03	0.178093
12	0x3a26fd30	0.00063701253
13	0xbdbdebc4	-0.09273484
14	0xbc5faef2	-0.01365255
15	0xbc9353f7	-0.017984373
16	0x3d7bbca6	0.061459206
17	0x3da110b9	0.07864518
18	0xb97ff6a4	-0.00024410576
19	0xbe9b8a63	-0.30379018

exp_avg_sq f4 [2, 10]
0	0x3ebbc72c	0.36675394
1	0x3f01b01d	0.5065935
2	0x3b221b0b	0.0024735357
3	0x3e2c84a5	0.16847475
4	0x3f31ca30	0.6944914
5	0x3c1dafe6	0.009624457
6	0x3e42a68a	0.19008842
7	0x3f1f42b2	0.62211144
8	0x3c828cc3	0.015936261
9	0x3eb54a16	0.35408086
10	0x3ebbc72c	0.36675394
11	0x3f01b01d	0.5065935
12	0x3b221b0d	0.0024735362
13	0x3e2c84a6	0.16847476
14	0x3f31ca31	0.69449145
15	0x3c1dafe5	0.009624456
16	0x3e42a689	0.1900884
17	0x3f1f42b2	0.62211144
18	0x3c828cc4	0.015936263
19	0x3eb54a15	0.35408083

exp_avg f4 [2]
0	0xbc0ea773	-0.008706915
1	0x3c0ea76e	0.008706911

exp_avg_sq f4 [2]
0	0x3b42187b	0.0029616642
1	0x3b42187b	0.0029616642
