tf/save.pt (torch, 23199 bytes, 4 tensors)

weight f4 [10, 1, 2, 250]
000000 7b 09 26 be e1 ed 86 3d 27 c6 21 bd 6f 62 79 3c
       -0.16214554 0.065883406 -0.039495613 0.015221222
000010 28 f3 29 3c a6 2a 92 bd 0a d2 9b bd c2 2c 81 3d
       0.010372914 -0.07137041 -0.07608421 0.06307365
000020 66 3e 79 3d 2b 75 f8 3c 0d fd 5e 3d f3 8b cf bd
       0.060850523 0.030329308 0.054440547 -0.10134115
000030 24 6b 64 3d de f8 94 3c cb cd 12 bd 02 73 f0 3d
       0.05576624 0.018185075 -0.03584079 0.11740686
000040 3c b9 37 bb 2d 6d 1b bc 4e 9f 19 be 67 44 c5 bc
       -0.0028033992 -0.009486479 -0.15002176 -0.024080468
000050 cc fa d7 bc 5d 55 28 bc 99 f0 99 bd f6 3d 72 3c
       -0.026364706 -0.010274258 -0.075165935 0.01478528
000060 91 28 41 bd b1 f8 fb bc c3 57 20 3b fb b3 13 3d
       -0.047157828 -0.030758234 0.0024466373 0.036060315
000070 a4 0e d0 3d 07 38 c7 bc 70 48 0f 3c be 57 ef 3c
       0.101590425 -0.024318708 0.008745298 0.029216643
000080 a0 ff ac bd 68 cf e6 bc 6d b5 65 3d 3f e7 3f 3b
       -0.08447194 -0.02817507 0.056081224 0.002928212
000090 ee 1d 99 bd 56 81 70 bd 4e f4 0f 3b 75 dd 94 3c
       -0.07476412 -0.058717094 0.0021965685 0.018172005
0000a0 77 a6 b3 3b 4e 9e d6 bd a3 b8 ad 3c df 63 3d bd
       0.0054824906 -0.10479413 0.021206206 -0.046237823
0000b0 74 71 1e 3d e0 cc b7 3b bb ab 85 3d 95 47 63 bd
       0.038682416 0.00560914 0.065268956 -0.055488188
0000c0 a4 d5 e0 bc f2 cd 21 be 29 c6 af bb cb 0b 8f bd
       -0.027445622 -0.15801218 -0.0053641987 -0.06984671
0000d0 61 58 a7 bd 8d ab 03 3d 57 b3 5c bd 2b 94 02 3d
       -0.08171154 0.032146025 -0.05388197 0.031879585
0000e0 12 7b 50 bb 03 51 00 3e 5a 9c 05 3c 62 78 f2 3b
       -0.0031811637 0.12530904 0.008154953 0.0073996047
0000f0 19 57 c5 bd 7d e6 62 3d ca 6f 18 bd f6 9e 3d be
       -0.09635753 0.055395592 -0.037215985 -0.1851767
000100 ee 5d 56 bc 89 36 a4 bd a6 35 7c bc a5 ce 1f be
       -0.013083918 -0.08018214 -0.01539365 -0.15606172
000110 c6 48 0e bb bd e5 0e 3c 51 73 bd bd 3d 24 6f bc
       -0.0021710857 0.008721766 -0.092505105 -0.014596042
000120 32 c9 5e 3d ca 1d 4b 3d bb f7 3e bb 65 0b bb bd
       0.054391094 0.049588956 -0.0029139358 -0.09133033
000130 5d 09 43 bd e8 b2 33 be f3 1e 08 bd 5e 4e 8e bd
       -0.04761635 -0.17548716 -0.03323264 -0.06948541
000140 9e f3 71 bc e1 02 2b bd da 1c ea 3c f3 ae b5 bb
       -0.0147675555 -0.041750792 0.02857821 -0.005544537
000150 ed e8 ba 3d 65 6d d3 bd 32 a8 21 be 0d 03 86 bd
       0.09126458 -0.103236 -0.15786818 -0.06543551
000160 96 28 cf bd 19 93 72 bd 97 d6 d5 3d af 50 c1 3c
       -0.10115163 -0.059222315 0.104413204 0.023598043
000170 5b f4 df 3b b7 5e bc 3d f6 60 48 be 79 3c 2a 3d
       0.0068345494 0.09197753 -0.19568238 0.041561577
000180 e8 f7 79 3c d5 46 05 bd 1c 20 41 3e 43 ba 07 3e
       0.015256859 -0.032538254 0.18859905 0.13254647
000190 dc 78 83 3d 7d 67 5a bd 59 f0 4a 3d db 1b 00 3e
       0.064195365 -0.05332135 0.04954562 0.12510626
0001a0 e0 62 2c bd e3 36 29 be 50 18 14 3e c1 7a 8d bd
       -0.042086482 -0.16524844 0.144624 -0.06908179
0001b0 fc 28 0b 3d ba d4 15 3d 25 3c e5 bc 0d 77 8d bc
       0.033974633 0.036579825 -0.02798278 -0.017268682
0001c0 0e 9d aa bd b5 26 b1 bd 71 dd 00 bd ae da 0f bb
       -0.08330737 -0.08649961 -0.031461183 -0.0021950412
0001d0 40 94 1d 3e d5 e1 dd 3d 76 ac b8 bd 46 29 46 3e
       0.15388584 0.1083409 -0.09017269 0.19351682
0001e0 cc 3f f1 bd fe dd bc bd 03 54 76 be c5 82 40 3d
       -0.117797464 -0.09222029 -0.24055485 0.04699971
0001f0 ad 9f 02 3e 33 21 ff 3c 23 80 74 bd 9e 89 50 be
       0.12756224 0.03114376 -0.059692513 -0.20364997
000200 7c 53 95 bd bb d1 02 be 56 94 ae bc f3 5c 93 bd
       -0.07291314 -0.12775318 -0.021310966 -0.07195463
000210 89 4d 23 bd 2c d8 31 bd 99 78 8e 3c ae 53 1d bd
       -0.039868865 -0.04341905 0.01739149 -0.03840988
000220 19 97 1d 3e 3e 5e 10 3e cc 7d 92 bc 2e b4 36 be
       0.1538967 0.1409845 -0.01788225 -0.1784217
000230 c5 a9 60 3d 29 e7 74 3d 0c 87 06 be 1f 65 b6 3c
       0.054849405 0.059790764 -0.13137454 0.022265015
000240 f0 2e 26 3d d0 79 71 bd ff e6 32 be 0a f9 0a be
       0.040572107 -0.05895406 -0.1747093 -0.13571563
000250 d0 72 43 bd 0b 10 c7 3d 1e 14 8a 3d 11 05 b6 3d
       -0.047716916 0.09719857 0.06742118 0.08887685
000260 3a 3f 49 be eb e1 60 bd 8e e3 85 bd 34 bd 51 3d
       -0.19653025 -0.054902952 -0.06537543 0.05120583
000270 27 4a e9 bd 39 17 ab bd 0b c2 15 bd 5c 42 53 bd
       -0.113910966 -0.08354039 -0.036562007 -0.051576957
000280 73 d0 0e 3d 4d b4 14 be ca a8 0c bd 18 88 f8 bd
       0.03486676 -0.14521904 -0.034340657 -0.12135333
000290 ba 86 df 3d 71 1e 37 be f5 49 0f bd 53 b6 d0 be
       0.10914369 -0.17882706 -0.03498264 -0.40764102
0002a0 24 04 99 bc d2 c1 95 3a 28 5e 2a bd 1e 51 55 bd
       -0.018678732 0.0011425561 -0.0415937 -0.052079313
0002b0 71 23 4a be ae 91 8c be 09 0f 9d 3d 3b 38 db bd
       -0.19740082 -0.27454895 0.07668883 -0.107040845
0002c0 c8 60 ba 3d 34 9e 09 be 1a 17 21 bd 1f 70 4c be
       0.09100491 -0.13439256 -0.039328672 -0.19964646
0002d0 f1 3e a8 3d b4 68 09 be d8 e1 11 3d be 8f 03 be
       0.0821513 -0.13418847 0.035615772 -0.12847802
0002e0 05 0a 1b bc bb ca 4f bc 19 6a 7f bd 17 2b 59 be
       -0.009462838 -0.012682612 -0.062357042 -0.21207844
0002f0 db 16 7f 3e f9 d3 40 3e 30 61 cf 3d ae 65 9e be
       0.24911062 0.18830861 0.10125959 -0.3093695
000300 bc 94 a6 3e 98 d9 89 be 95 07 8d bd a6 57 bb bd
       0.3253535 -0.26923823 -0.06886212 -0.09147577
000310 33 77 18 be e6 e6 f2 bb 14 19 07 3e 03 93 3d 3e
       -0.14889221 -0.007412779 0.1319316 0.18513112
000320 cc ea 34 bd 58 de 0f 3e 28 35 d7 bc 5c 7c a1 bd
       -0.044169232 0.14049661 -0.026270464 -0.07885048
000330 3a d4 d6 bc 83 b3 42 bd 6a df 11 3d 00 27 2b 3b
       -0.026224244 -0.047534477 0.035613455 0.0026115775
000340 b2 78 af 3d 64 b8 b3 3d 02 cb 8b 3d dc 79 11 3d
       0.08567943 0.08775404 0.0682583 0.035516605
000350 c8 1f 7b 3e e7 15 0f be ff 49 86 3e e7 d0 19 be
       0.24523842 -0.13973199 0.2622833 -0.15021096
000360 28 40 74 be 93 c8 17 be 4a 42 7e bd b8 32 20 be
       -0.23852599 -0.14822607 -0.062074937 -0.15644348
000370 e2 2a 27 3e cc 44 57 bc 43 79 c3 3d 5e 9a 19 3e
       0.16324952 -0.013138961 0.09544613 0.15000293
000380 01 a5 b3 bd 2e 9b 11 be e8 2f 01 3e b7 49 68 3e
       -0.08771706 -0.14219353 0.12615931 0.2268437
000390 93 3d 91 be 20 c0 80 be a6 ba 0d be 68 71 74 3d
       -0.2836729 -0.2514658 -0.13840732 0.059678465
0003a0 0a d3 5e bc e9 cf c1 bd 85 6e 0a bd 7e 2f e3 3d
       -0.01360012 -0.09463484 -0.033796806 0.11093043
0003b0 92 d6 56 bd 07 bf ca 3c 4c 8e 01 3e a5 f7 93 be
       -0.052450724 0.024749292 0.12651938 -0.28899875
0003c0 ca b8 2b bd 54 66 69 be 97 4d 22 bd 9d aa 63 be
       -0.041924275 -0.22792941 -0.039624777 -0.22233053
0003d0 df 19 67 be 5b 03 cf 3e f5 c6 8b 3d 70 45 23 be
       -0.22568463 0.40432248 0.068250574 -0.15944457
0003e0 2a 40 35 3d e1 03 b7 bd 1d 75 29 be 4c 87 3a 3d
       0.044250645 -0.08936287 -0.16548581 0.045539185
0003f0 e4 d6 1f bd c3 cd 00 bd 68 cd b2 3c 85 82 1d bd
       -0.039023295 -0.03144623 0.021826461 -0.03845455

bias f4 [10]
000000 92 2c a2 bf 47 d6 12 c0 9c f9 97 bf 08 a4 99 bf
       -1.2669852 -2.2943285 -1.187305 -1.2003183
000010 26 dd 9f bf 27 3d bb bf 64 3f 94 bf 6a 33 8a bf
       -1.2489364 -1.4628037 -1.1581845 -1.079694
000020 8e 58 df bf 1d 37 ae bf
       -1.74489 -1.3610569

weight f4 [2, 10]
000000 99 38 5c 3e 7d 3d 59 be 59 2a 21 be 9f 97 28 3d
       0.21505965 -0.21214862 -0.1573881 0.041160222
000010 b5 07 18 3c d7 fc 8a bd bc 57 9e 3d 5d e1 39 3e
       0.009279181 -0.067865066 0.07731578 0.18152376
000020 59 db 0a 3e 7c d5 11 3e 01 7a 76 3e be 86 46 be
       0.13560237 0.14241594 0.24069978 -0.19387338
000030 37 02 9c 3e 7b b0 73 bc 03 4a a3 bc 2b 55 9c be
       0.3047044 -0.014873619 -0.019932752 -0.30533728
000040 ba c7 f2 3d e0 4b 1b 3e 35 4e 98 bc de b2 2a 3e
       0.11854501 0.15165663 -0.01859198 0.16669795

bias f4 [2]
000000 2e be 0e be c6 e6 8d bc
       -0.13939735 -0.017321955
