word2vec/checkpoint_30_epoch.pkl (torch, 16129 bytes, 12 tensors)

conv.0.weight f4 [10, 1, 2, 50]
000000 c4 22 58 3e ab d2 a7 be a8 34 d8 be 0a fc 2b bd
       0.21107012 -0.32777914 -0.42227674 -0.04198841
000010 36 a0 ac 3e 0c e0 a5 3d af fc f3 bd 4d d4 d2 bd
       0.3371598 0.08099374 -0.1191343 -0.102943994
000020 b3 04 02 3e 2d b5 e1 3d 85 ee 36 bd 48 a8 e9 bd
       0.12697105 0.11020885 -0.044661064 -0.1140905
000030 2b 2c e0 3d f2 f2 3c bd 21 97 8e be 29 48 6e 3c
       0.10945924 -0.04613013 -0.27849677 0.0145435715
000040 0a 81 5d 3e 52 eb 58 3e 59 60 10 3e cc 3a e4 bd
       0.21631256 0.21183518 0.14099254 -0.11144027
000050 34 9f bc 3b 86 62 6c 3e d5 84 b7 3d 6e 4a 9b bd
       0.005756283 0.23084459 0.089608826 -0.07582556
000060 6c 70 a5 bc 94 67 39 3e 84 17 8c 3d 17 50 47 3d
       -0.020195208 0.18105918 0.06840423 0.048660364
000070 13 f2 83 3e 00 13 d9 3b e4 a2 98 3b 35 a9 26 be
       0.25770625 0.0066245794 0.00465809 -0.16275485
000080 d7 b5 df bc 9b 1a 02 3e 5d 8e 68 3c 6a d6 b8 be
       -0.027308388 0.12705462 0.014194098 -0.36101085
000090 91 59 55 bb 44 e9 ad bd 1c 3c 93 be 19 69 a0 3d
       -0.0032554606 -0.084917575 -0.28756797 0.07832546
0000a0 d4 6a af be 03 34 de 3d 57 08 7f bd ee b0 91 3e
       -0.3426119 0.10849764 -0.062263813 0.284553
0000b0 ef 32 cf bd 5f f6 44 3c 87 52 7a bd c0 d0 22 be
       -0.10117137 0.01202163 -0.06111386 -0.15899944
0000c0 78 a6 4e bd b2 bd 5e 3c 4a 1c 80 bd 1a 6a 67 bc
       -0.050451726 0.013595032 -0.06255396 -0.014124418
0000d0 94 c1 15 3e 34 fc f1 3d 9d ff a1 bd fe 8e 03 3e
       0.14624625 0.11815682 -0.079100825 0.12847516
0000e0 03 ab d3 3d 9c 1f 4a be e7 14 d8 3e 6a c2 a0 3e
       0.10335352 -0.1973862 0.42203447 0.31398326
0000f0 52 62 ea bd 88 00 f2 bd b8 d8 8e 3e 66 24 14 be
       -0.11444534 -0.118165076 0.27899718 -0.1446701
000100 dd a6 fd bd 9e c4 85 bc c5 1c d5 3c 67 e6 c3 3e
       -0.12385342 -0.016329106 0.026014695 0.3826172
000110 cc 90 7e be 79 c0 f3 bd b1 9a 9b 3d f7 bc 08 bf
       -0.24859923 -0.119019456 0.075978644 -0.5341334
000120 81 4f 70 3e ad a8 86 be 10 eb 40 3e c2 5f ba 3d
       0.23467828 -0.26300564 0.18839669 0.091002956
000130 64 37 62 be f3 e8 69 bd ea f0 a5 3d ec ff 87 be
       -0.22091442 -0.057106923 0.08102591 -0.2656244
000140 e8 9b 55 bd de 9e 8e 3e af fa 3c be 25 e6 18 3e
       -0.052150637 0.2785558 -0.18455003 0.14931543
000150 22 e1 cb 3d c5 da 12 be da b9 4a 3e 80 91 4f bd
       0.0995505 -0.14341266 0.19797459 -0.05067587
000160 67 f4 62 bd ab 0c 36 3e 9e e6 83 be ba 25 a4 3e
       -0.05540886 0.1777827 -0.25761884 0.32060033
000170 ff 78 a5 be bf f7 a4 3d ec 99 4f be 39 74 ec bd
       -0.32318875 0.08055066 -0.2027356 -0.11545605
000180 60 ac f0 3c a8 b9 a6 3c aa 90 de 3d 19 4b 5c 3e
       0.02937907 0.0203522 0.10867436 0.21513022
000190 99 f3 da bd 12 5b d4 bd 2a 17 b3 3d 9e da 29 3e
       -0.10690994 -0.10368933 0.087446526 0.16587302
0001a0 ae 75 ae 3d ed 90 0e 3e 27 d8 56 3d 63 96 6a be
       0.08518539 0.13922472 0.052452233 -0.2290893
0001b0 4a f0 e1 3d 77 d6 0c 3f e2 68 29 bd 04 75 99 be
       0.110321596 0.5501475 -0.04135979 -0.29972088
0001c0 2b ce 18 3e 00 97 ae bd 4e ba 24 3e e5 90 ec bd
       0.14922397 -0.08524895 0.16086695 -0.11551074
0001d0 cc 47 58 bc 21 2a 79 3e 7a 1b cc be 7a e8 78 3d
       -0.013200711 0.24332477 -0.39864713 0.060768582
0001e0 cf 85 8e 3e 56 6a 54 be 8c 19 6f 3e 27 0c 3e be
       0.27836463 -0.20743689 0.23349589 -0.18559323
0001f0 50 3e 15 3e 64 5b b2 3e 6b bd 4b be 38 a4 cb 3a
       0.14574552 0.3483535 -0.19896476 0.0015536612
000200 b4 0e 87 bd df 9b 94 be de 59 f5 3d 84 21 d1 3e
       -0.06594601 -0.2902517 0.119800314 0.40845883
000210 1d 3c 88 bd 06 d2 9e 3e 5c 7c 15 3f 38 8f f8 be
       -0.06652091 0.3101961 0.5839288 -0.48546767
000220 b1 94 87 3e 09 19 4f bd 0d de 4f bb 9f dc 2f 3e
       0.2648063 -0.050560985 -0.0031718046 0.17174004
000230 e2 66 89 be 5b b4 a8 3e c7 39 e1 bd be 84 18 3e
       -0.26836306 0.329501 -0.10997348 0.14894387
000240 ac 74 ae be b7 42 08 be 51 d4 aa 3e ef 58 11 3e
       -0.3407339 -0.133067 0.3336511 0.14194082
000250 c8 c5 f7 3d 48 19 bd 3e 7f f5 38 3e 96 3f 2f 3d
       0.12098271 0.3693335 0.180624 0.04278525
000260 20 91 48 be 27 3e a7 3e 2c 0c 53 3d f9 2e 10 be
       -0.19586611 0.32664606 0.05152528 -0.14080419
000270 ed b4 5e be d1 fa 84 be d6 4d 68 3d c9 11 ec bb
       -0.21748705 -0.25972608 0.056714855 -0.0072042686
000280 cb a2 4e bd 9e 8d 82 bc d8 d7 5e 3d d1 e9 8e bd
       -0.05044822 -0.015936669 0.054405063 -0.06978191
000290 79 f1 07 be ba 41 c3 bd f3 28 b0 3e 41 02 20 bd
       -0.13275708 -0.09534021 0.34406242 -0.03906465
0002a0 ab 35 21 be 0c 38 68 be 8f 41 0c 3d 3e 99 98 3e
       -0.15743129 -0.2267763 0.03424221 0.29804415
0002b0 85 2c 26 be 14 4a 4e be 31 cc 32 be 30 e9 ac bd
       -0.1622792 -0.20145446 -0.17460705 -0.084429145
0002c0 2c 32 a7 3c 36 14 5c 3e a0 85 9f 3e 12 39 18 be
       0.020409666 0.21492085 0.31156635 -0.1486552
0002d0 00 42 f6 3c c9 2f 03 be dc cc 84 be 4f a9 c4 3b
       0.030060768 -0.12811197 -0.25937545 0.0060016285
0002e0 ef 55 2b 3d c7 1a 4b bd 4b 90 2b be 8f 39 32 be
       0.04183 -0.049586084 -0.16754262 -0.1740477
0002f0 5b 4a ab be b2 94 ca 3d 58 d2 c1 be 38 eb 94 3e
       -0.33455166 0.09891643 -0.37855792 0.29085708
000300 71 42 c7 bd 73 b9 56 be 95 79 b4 bd 0e ea 74 3d
       -0.097294696 -0.20969181 -0.088122524 0.059793524
000310 bd 32 5e bd 75 24 ce bd bd fb 47 3e 23 cc fa bd
       -0.054247607 -0.100655474 0.19529624 -0.12245967
000320 9b 90 26 be 22 79 44 bc 72 3f 0c 3c f7 15 5c 3d
       -0.162661 -0.011991771 0.008560048 0.053731885
000330 59 05 ed bb 09 e2 57 3e 83 45 e6 bb b2 5c 9c bd
       -0.0072333035 0.2108232 -0.0070273294 -0.07634868
000340 c8 c0 3d 3e d5 1f b1 3e 17 aa 1f be af 2d 00 be
       0.18530571 0.34594598 -0.15592228 -0.12517427
000350 ad ac 88 3e 44 96 82 be 50 a7 38 3d 1d b8 14 be
       0.2669424 -0.2550527 0.045081437 -0.14523359
000360 7f 4e 2a bd 53 2d 04 3e 0c d9 92 be cb 38 d9 3d
       -0.041578766 0.12907915 -0.2868122 0.106065355
000370 37 4a 2c be 33 5c fa 3d 22 55 12 3e 49 f6 9a be
       -0.16825186 0.12224617 0.14290288 -0.30266026
000380 6f 27 4c 3d c9 81 99 3e f3 7a 42 bd 22 e9 95 bd
       0.049842294 0.2998183 -0.047480535 -0.07319857
000390 fd 1c 6f 3e ae ad a9 be 99 5f 98 3d a9 e8 49 3e
       0.23350902 -0.3314032 0.07440109 0.19717659
0003a0 98 43 b7 3d 95 97 d6 3c de 3d fb 3e 3d 51 ad be
       0.08948439 0.026195327 0.49070638 -0.33851042
0003b0 68 de a1 bd e1 57 a6 be b6 ee 05 be b0 af 55 bc
       -0.07903749 -0.3248892 -0.13079342 -0.013042375
0003c0 47 17 7c be ce 81 c6 3e 54 5b de bd e9 c3 43 bc
       -0.24618255 0.38770908 -0.10857263 -0.011948564
0003d0 53 7b 8e be 38 35 57 be 4c 23 c0 3e fc e1 0f 3d
       -0.27828464 -0.21016395 0.3752693 0.035127625
0003e0 c9 6a 49 3d cc 3c 8b 3d 8e e2 cd bd 6b 44 8a 3d
       0.049174104 0.067987055 -0.100529775 0.06751331
0003f0 69 c1 91 3d 13 eb fc 3d ad 8c 4a be 59 9f 51 bd
       0.07116968 0.12349524 -0.19780226 -0.051177356

conv.0.bias f4 [10]
000000 fc 34 18 be 5d 0e 03 be d3 d6 65 bb 66 a0 46 bd
       -0.14863962 -0.12798448 -0.0035070672 -0.04849281
000010 fb f7 7b 3c 0c 6d cd bd 9f 29 fe bd f8 01 01 be
       0.015378947 -0.10030565 -0.12410282 -0.12598407
000020 a2 ac 1c bd a9 7c 9a bd
       -0.038250573 -0.07543308

fc.weight f4 [2, 10]
000000 80 5c 08 3f 74 56 52 3f c1 3c 38 3f 54 f0 54 3f
       0.53266144 0.82163167 0.71967703 0.8317921
000010 4e 0f 0d bf 95 23 d2 be ee 8a 3e bf 84 38 e7 be
       -0.5510148 -0.41042772 -0.7443074 -0.45160306
000020 12 6d ad be c6 74 93 be e7 7c 3b bf 88 ed cf be
       -0.33872277 -0.2880003 -0.7323746 -0.4061091
000030 65 b7 9b be 32 24 8f be 25 06 1d 3f 90 6e 29 3f
       -0.30413356 -0.27957302 0.613375 0.6618433
000040 75 49 6e 3e c8 4d 0d 3f cf f7 25 3f a4 2a 31 3f
       0.23270209 0.5519681 0.6483125 0.6920569

fc.bias f4 [2]
000000 64 53 2b 3e 32 24 20 3e
       0.1673103 0.15638807

exp_avg f4 [10, 1, 2, 50]
000000 51 ce 7c bb 3d 39 f1 3b 48 66 7b b9 e4 15 ec ba
       -0.0038575123 0.0073615597 -0.00023975328 -0.0018011895
000010 69 eb 98 3b 3f 60 64 bb 14 2c 08 bc 25 be a9 bb
       0.004666735 -0.0034847406 -0.00831129 -0.0051801377
000020 76 97 d2 3b c8 e9 27 3b 54 3f 8e bb 48 f4 82 b9
       0.006426747 0.0025621522 -0.0043410454 -0.00024977536
000030 b5 5d 04 bc aa 43 f9 bb c1 e7 18 3c 69 00 48 bb
       -0.008078982 -0.007606943 0.009332598 -0.0030517823
000040 3a 0c e3 bb 47 c4 c7 3a 86 5a fc 3b 28 66 dc 39
       -0.0069289478 0.001524099 0.007701221 0.00042037782
000050 c0 24 2f 3b 49 e1 cc bb 15 2b 54 bc e9 3f 82 3a
       0.0026724786 -0.006252442 -0.012949725 0.000993726
000060 c0 0f ea 39 00 69 c1 38 9c fa 5d 3b e4 15 ef bb
       0.00044643693 9.222515e-05 0.0033871299 -0.0072963107
000070 44 d0 7b 3b e6 2b 8b bb 49 d8 83 3b 40 a7 b6 38
       0.0038423697 -0.0042471765 0.004023586 8.709589e-05
000080 40 65 4b 3b 1e 39 e6 ba 88 12 00 3c b8 06 3c ba
       0.0031035691 -0.001756463 0.007816918 -0.0007172632
000090 1a 94 b4 3a 12 e9 85 bb 06 62 55 ba 9d df fb 3b
       0.0013777048 -0.004086622 -0.0008139912 0.007686569
0000a0 a2 2a 76 bb 0e e4 8f 3b 8f 0f a7 3b ca 8e aa 3b
       -0.0037562032 0.0043912 0.0050982903 0.00520501
0000b0 3d 02 86 bc 3d 75 62 3b 5a 15 2a 3b 86 79 92 3b
       -0.01635849 0.0034554743 0.0025952668 0.004470053
0000c0 5f 8e ef bb 71 83 21 bb 22 84 20 3c 0c 9f 48 bb
       -0.007310673 -0.0024644996 0.009797128 -0.0030612377
0000d0 40 18 24 ba 09 8f 29 3b 54 22 06 3c ba f9 e8 ba
       -0.0006259717 0.002587261 0.008186895 -0.001777462
0000e0 4f 0c 93 bb 72 47 0a bc 2e 9b 57 3b 53 2a 05 bb
       -0.0044875513 -0.008439885 0.003289889 -0.0020319417
0000f0 bf 7d af bb d8 53 d6 ba c8 f0 3f bb 8e 15 12 3b
       -0.0053555663 -0.0016351892 -0.0029287804 0.002229068
000100 b2 e4 0c 3b 53 99 e3 bb c2 72 fd bb d3 e7 21 bc
       0.0021498618 -0.006945768 -0.0077346275 -0.009881931
000110 0e e6 27 3c ea be fe 3b e0 e4 23 38 b9 83 d0 ba
       0.01024772 0.0077742236 3.9075385e-05 -0.0015908397
000120 e8 7a 81 bc 7e f3 a2 3b b9 21 f5 bb 55 1c a1 ba
       -0.015805677 0.004972874 -0.0074808267 -0.0012291769
000130 71 7a 42 3b 6a 62 f2 ba 41 81 29 3b 88 fc fa bb
       0.0029675032 -0.0018492464 0.0025864395 -0.0076594986
000140 ef 96 5d 3b f4 84 0d ba d2 81 58 3c 54 ed 55 3b
       0.0033811887 -0.00053985347 0.013214545 0.003264268
000150 00 ac 2f 3c a6 21 f9 ba 47 24 ad 3a 5a ea a0 ba
       0.01072216 -0.001900722 0.0013209664 -0.0012276873
000160 5d 92 11 bb 04 df f3 3b 5a fe 87 bb a6 52 db 3b
       -0.0022212483 0.007442357 -0.004150194 0.006693202
000170 f2 aa c6 3b 46 d1 51 ba 76 fe 02 bc 2c 75 c6 3b
       0.0060628587 -0.00080039015 -0.0079952385 0.0060564484
000180 7f cb a3 3b 50 97 48 3b f4 56 06 bc 54 a9 b7 bb
       0.004998624 0.0030607767 -0.008199442 -0.0056049023
000190 77 77 cd 3a 6c 29 c6 3a b7 d0 db 3a 77 95 b8 3a
       0.0015675862 0.0015118546 0.0016770576 0.001408263
0001a0 56 44 40 3b ec 2e 49 3b 84 19 3e 3b b6 9b 64 3a
       0.0029337606 0.0030698134 0.0029006908 0.00087207125
0001b0 1f 57 5b bb 30 4f de 39 38 35 43 b9 4d 23 d4 ba
       -0.0033468676 0.0004240214 -0.00018616475 -0.0016184837
0001c0 04 c3 24 3b 98 f4 c4 ba fa 96 03 bc 95 50 0e 3b
       0.0025140652 -0.0015026508 -0.008031601 0.002171551
0001d0 ca 9f 1d 3a 00 01 e0 b6 12 04 9f bb 03 0a 40 bb
       0.0006012885 -6.6758366e-06 -0.00485278 -0.0029302842
0001e0 68 ab 55 b9 68 4c f4 ba 30 9b c3 ba 1e 46 7d bb
       -0.00020377117 -0.0018638493 -0.0014923569 -0.003864653
0001f0 fc 43 0c ba 26 d8 4d 3a e8 12 1f 3b a0 8e eb 37
       -0.00053507066 0.0007852338 0.0024272744 2.8080598e-05
000200 38 6c 17 3b ac 18 40 3b d1 73 9b 3b 46 b3 a3 ba
       0.0023105275 0.002931158 0.004744031 -0.0012489341
000210 a8 d0 9f ba ba 72 b6 3b ab 5b 50 ba f9 2c 93 3a
       -0.0012192922 0.0055678757 -0.000794823 0.0011228613
000220 30 6c 73 bb 1a f5 87 39 12 d2 ae 3b f3 76 83 3b
       -0.0037143342 0.0002593182 0.005335101 0.0040119826
000230 98 ee 80 ba 4b 0c 80 3a 4b 3d b9 ba 78 86 f3 3a
       -0.0009836731 0.0009769289 -0.0014132647 0.0018579504
000240 c0 f4 0d 3b f3 70 06 bb 3e fe d2 3a 8f 61 3e bb
       0.0021660775 -0.00205141 0.0016097499 -0.0029049849
000250 c9 1a 8a 3b ed 9a 47 3a 41 85 c7 3b 6d 3d c1 3b
       0.004214619 0.00076143333 0.006088883 0.005897215
000260 5a d4 13 bb 7f ba 96 bb 90 31 56 bb 2e a0 ba ba
       -0.0022556991 -0.004599869 -0.003268335 -0.0014238411
000270 74 bd 54 3b 49 1e 31 3b 2e 4d b1 ba a7 29 ab bb
       0.0032461556 0.0027026108 -0.001352703 -0.005223471
000280 9f 32 4e 3b bf 65 ff 3a 66 3f 6b ba ae 03 45 39
       0.0031463278 0.0019485279 -0.00089739857 0.00018788755
000290 6e d4 aa bb 48 7b 57 bb d0 6a fd ba 00 1a f9 b7
       -0.005213312 -0.0032879878 -0.0019334201 -2.969522e-05
0002a0 9c 8a 88 3b 5b f3 02 bb 60 aa a1 b8 b4 ba 39 bb
       0.004166914 -0.0019981477 -7.708813e-05 -0.0028340044
0002b0 fe f8 ea bb 3c 9d c8 b9 e0 47 08 3a a8 c8 c6 bb
       -0.0071707955 -0.0003826412 0.00051986985 -0.0060664006
0002c0 c1 c5 e8 ba 70 35 cc 3b a3 45 1b 3b d4 c6 d0 3a
       -0.001775913 0.006231956 0.002369263 0.0015928396
0002d0 ed e9 2f 3b 1b 48 76 ba ce b6 36 3a 12 25 a3 bb
       0.0026842311 -0.00093949 0.0006969989 -0.0049787844
0002e0 f6 1a f5 3a 13 86 1d 3c 85 68 2b bb 0c 0e 52 3a
       0.0018700052 0.009614485 -0.0026154828 0.00080129574
0002f0 d7 b8 6f bb 49 f8 23 bb 6e 68 8c 3a 5e 76 07 bb
       -0.003657868 -0.0025019816 0.0010712275 -0.0020669918
000300 fe 45 46 3b 35 2f 6c 3a 9e 4a 17 3b cd 86 80 ba
       0.003025412 0.000900972 0.0023085247 -0.0009805799
000310 76 de a3 3b 8b 85 55 bb 38 d3 68 3b c8 22 bb bb
       0.0050008846 -0.0032580819 0.0035526287 -0.0057109334
000320 e4 27 77 3a 06 ef f6 39 93 b4 04 bb 2c 5f 21 bb
       0.00094282464 0.00047098863 -0.0020249232 -0.0024623377
000330 cc 28 0f 3b 68 83 28 3a 7a 38 5a 3b 9a 6e 8b bb
       0.0021844385 0.00064282725 0.0033297823 -0.004255128
000340 d7 60 d1 ba 09 3e d0 3a f3 ac 88 3b b8 cd 8b 3b
       -0.0015974295 0.0015887629 0.004171008 0.004266467
000350 df 7a 0e bb 9a de 06 bb 08 b8 1e 3b 83 2b d7 3a
       -0.0021740717 -0.0020579458 0.0024218578 0.0016416166
000360 38 8d c9 3a 6e e7 6b 39 1b bd bd 3b cd 29 a6 3a
       0.001537717 0.0002249756 0.0057903654 0.0012677253
000370 94 44 e1 ba 79 8c 86 3b 84 6e 6c bb c1 b5 3b ba
       -0.0017186576 0.004106101 -0.0036076615 -0.00071605673
000380 e3 19 99 bb 02 a3 cc bb 36 3a 8c 3b 5a 2b c6 3a
       -0.0046722754 -0.006245018 0.0042794 0.0015119121
000390 33 bc db 3a 14 f2 44 3b d0 aa 4b ba f4 8b f8 bb
       0.0016764462 0.0030051516 -0.00077692885 -0.007585043
0003a0 c7 e0 1e 3b 43 7c 19 bb ee 2f dc ba 10 76 92 b7
       0.0024242864 -0.0023420013 -0.0016798952 -1.7459533e-05
0003b0 ea 06 35 3a 6a c8 32 bb fe 59 aa bb 38 09 47 b8
       0.00069056323 -0.00272801 -0.005198716 -4.7453883e-05
0003c0 40 03 90 b9 d6 33 79 ba cb 66 c7 3a 19 4d 32 3b
       -0.00027468242 -0.00095063203 0.001521313 0.0027206598
0003d0 80 82 d1 bb fc 7c bc ba f0 84 0d bb 9c 24 59 3b
       -0.0063937306 -0.001438051 -0.002159413 0.0033133393
0003e0 0c 02 5a bb 36 08 06 3b 9a b4 0b 3c 2c 59 68 3b
       -0.003326538 0.0020451671 0.0085269455 0.0035453541
0003f0 f4 4d 95 39 35 01 45 3b 52 4c 06 3b 68 89 5c b9
       0.00028477574 0.0030060534 0.0020492268 -0.00021032023

exp_avg_sq f4 [10, 1, 2, 50]
000000 a6 f8 94 39 fb 6f b1 39 32 13 2a 39 b9 06 4b 39
       0.00028414017 0.00033843503 0.00016219614 0.00019362093
000010 ec bf 94 39 f8 ba 8a 39 e2 d0 05 3a 74 b0 5e 3a
       0.00028371753 0.00026460714 0.00051046733 0.00084949215
000020 c4 d5 77 3a 86 6f 80 39 df a1 a7 39 d0 16 89 39
       0.0009454156 0.00024497154 0.00031973326 0.00026147673
000030 d6 0e e9 39 2f d6 80 39 c6 91 31 3a 0b d7 5f 39
       0.00044452277 0.00024573642 0.0006773736 0.00021347047
000040 30 85 aa 39 a2 e8 e9 39 7a 16 8d 3a a1 18 f3 39
       0.0003252416 0.00044614548 0.0010764145 0.00046366922
000050 35 3c 89 39 f5 8a c1 3a 14 3a e7 3a 8b 88 ab 39
       0.00026175534 0.0014766144 0.001764121 0.00032717394
000060 bc 1c 27 3a fa 8f 98 39 b1 32 06 3a 0b 00 f5 39
       0.0006374826 0.0002909897 0.0005119248 0.00046730074
000070 3b 70 48 3a f2 c9 64 39 2b 49 83 39 5f fd 98 39
       0.0007646118 0.00021819005 0.00025040781 0.00029180475
000080 46 1e fd 39 b7 17 6b 39 af ff 36 3a 08 10 89 39
       0.00048278476 0.00022420181 0.0006980849 0.0002614262
000090 ab 22 8a 39 9f 91 41 39 4d af c6 39 51 f6 48 3a
       0.0002634724 0.00018460162 0.00037896112 0.00076660985
0000a0 54 4b 98 3a 12 97 bb 39 b6 8e 82 39 e0 fd 8c 39
       0.0011619129 0.00035779976 0.0002490186 0.00026892032
0000b0 3a fe 5b 3b a9 c0 6f 39 ca 0d 75 39 2c ec 22 3a
       0.003356828 0.00022864588 0.00023370158 0.0006215002
0000c0 9a 2a 06 3a 99 8e 73 39 e4 e1 98 39 a4 ef b0 39
       0.00051180425 0.00023227408 0.0002916 0.00033747882
0000d0 13 4c 0c 3a 25 fc 9f 39 91 e7 07 3a 5e 38 6b 39
       0.0005351912 0.00030514706 0.00051843474 0.00022432345
0000e0 d0 ed 0c 3a f2 8c 55 3a 97 2d 39 3a bc 93 21 39
       0.0005376013 0.00081463077 0.00070639834 0.00015409192
0000f0 f7 72 a9 39 3d d5 f0 39 1b e9 5a 3a 17 31 0d 39
       0.00032319847 0.00045935242 0.00083507755 0.00013465095
000100 45 4f 65 3a 92 1c 30 39 6e 35 6d 39 7c d4 33 3a
       0.0008747469 0.00016795311 0.00022621985 0.0006859971
000110 c1 9c 12 3b 45 f1 14 3a b2 85 94 39 eb 8d c2 39
       0.0022371265 0.0005681704 0.0002832837 0.000371083
000120 ed b1 63 3b a8 55 04 3a 4d d4 5e 3a 2d fb 68 39
       0.0034743503 0.0005048164 0.0008500263 0.00022218814
000130 7e 4a 87 3a 54 e9 a5 39 63 58 5e 3a 0b ac e2 39
       0.0010321883 0.00031645095 0.00084817986 0.0004323426
000140 ce e1 91 39 d2 2a 2b 3a f0 9a 0c 3a 0d 16 87 39
       0.00027824793 0.0006529513 0.00053636637 0.00025765636
000150 2c 6f 8f 39 53 54 6a 39 5c d7 7a 39 e7 c7 28 39
       0.00027357915 0.00022347392 0.00023922086 0.00016096198
000160 dc ed 53 3a d7 8b c1 39 3d 65 32 3a a7 37 7a 39
       0.0008084455 0.00036916017 0.0006805247 0.0002386259
000170 81 46 e0 39 b8 45 41 39 97 d8 29 3b c1 5d 8b 39
       0.0004277714 0.00018431887 0.002591645 0.00026581998
000180 cf 06 62 39 af 8c 82 3a 1f 81 29 3a 43 b7 85 39
       0.00021555576 0.000996014 0.0006466079 0.00025504277
000190 72 54 94 39 d1 8a 8f 39 60 bc eb 39 11 27 88 39
       0.00028291676 0.00027378512 0.00044963043 0.00025969048
0001a0 29 2d e8 39 e1 db 48 39 b0 17 b7 39 03 dd 30 3a
       0.00044284135 0.00019155398 0.00034922129 0.00067468005
0001b0 00 6f 2e 3a 9e ef e9 38 66 f2 98 39 18 95 f6 39
       0.00066541135 0.00011154938 0.000291723 0.0004703186
0001c0 7a ca 12 3a 4d 43 c7 38 50 37 27 3a d7 f1 22 39
       0.00055996294 9.501595e-05 0.00063787866 0.00015539616
0001d0 82 b8 5b 39 a9 da 0a 3a d9 c3 f4 3a db db 0c 3a
       0.00020954202 0.0005296865 0.001867409 0.0005373337
0001e0 9b 54 3e 39 8c a2 21 3a fa f0 24 3b eb 33 dd 39
       0.0001815133 0.0006165884 0.0025168047 0.00042191087
0001f0 ac ae 2e 3a ea 38 4e 39 97 73 45 3a 94 cc 90 39
       0.00066636014 0.00019666893 0.0007532178 0.00027618243
000200 e4 d3 36 3a d4 4f c3 39 a2 9d 8a 39 f2 0f 1b 3a
       0.0006974323 0.00037252775 0.00026438857 0.0005915157
000210 56 02 d4 39 43 23 66 39 d1 76 13 39 e4 44 40 39
       0.0004043753 0.00021947645 0.00014063275 0.0001833621
000220 88 03 49 39 b4 45 f2 38 3a 56 11 3a 0a 9f 75 39
       0.00019170169 0.000115524424 0.000554416 0.00023424267
000230 eb c3 10 3a f1 90 33 39 5a 07 89 39 f4 4a 1f 39
       0.0005522358 0.00017124765 0.00026136154 0.00015191344
000240 0b 4f 02 3b c6 e5 3d 39 e2 aa 4f 39 84 26 55 3a
       0.001988354 0.00018110042 0.00019804717 0.00081310445
000250 9b 76 2a 3a c1 d8 86 39 b5 65 91 39 dd b9 a3 39
       0.0006502659 0.00025719966 0.00027732333 0.00031228262
000260 b7 75 5e 39 04 fc 4f 39 66 eb b6 39 e7 df 86 39
       0.00021215422 0.00019834941 0.0003488913 0.00025725292
000270 76 3a b3 39 bc 28 39 3a 04 5e 37 3a b4 f1 8c 39
       0.00034185097 0.000706326 0.00069949054 0.00026882964
000280 5d 19 68 39 71 7d 87 39 a8 19 a3 39 32 f9 4b 39
       0.00022134693 0.00025842668 0.00031108898 0.00019452421
000290 d8 42 16 3a c5 29 53 39 d7 f1 bf 39 9f 10 76 39
       0.00057320064 0.00020138088 0.00036610544 0.0002346658
0002a0 f8 29 73 3a e9 9a 20 3a 59 c7 97 39 2a 38 9c 3a
       0.0009275968 0.0006126599 0.0002894949 0.0011918594
0002b0 18 28 9c 3a 25 10 a2 39 1a 56 f8 39 dc d5 40 39
       0.0011913804 0.00030911076 0.00047366397 0.00018390216
0002c0 23 a0 07 3a 5e fa c2 39 f1 c1 10 3a 83 40 75 39
       0.00051737035 0.00037189102 0.00055220636 0.00023389053
0002d0 81 b0 85 39 93 17 69 39 dc bb e6 39 7c 52 4d 39
       0.00025499242 0.00022229394 0.00044008985 0.00019581051
0002e0 33 05 0b 3a b8 23 ef 39 4b e2 72 39 db ee 2f 39
       0.0005303204 0.00045612245 0.00023163219 0.00016778281
0002f0 12 8e 85 39 b7 43 02 3a 2b 5d 57 3a 5f 52 a4 39
       0.00025473587 0.0004969197 0.0008215482 0.0003134189
000300 2c f7 43 39 2e 0f 7d 39 a6 5b 26 3b 88 38 36 39
       0.00018688728 0.00024133615 0.0025384217 0.00017377932
000310 38 cf 72 39 db 75 15 3a 10 ee 29 3a 8b 23 81 39
       0.00023156113 0.0005701461 0.00064823125 0.0002463128
000320 0f cb 62 39 ce 72 64 39 23 5e 8c 39 09 61 49 39
       0.00021628685 0.00021786542 0.00026773018 0.00019205002
000330 c6 d7 ae 39 3d df 22 39 d6 a0 9d 39 02 5a 18 3a
       0.0003334863 0.00015532687 0.00030065206 0.0005811752
000340 90 b5 03 3a 23 52 ff 38 ff 2b 82 39 8d 5e 9e 39
       0.00050243083 0.00012174647 0.00024828312 0.00030206554
000350 97 00 d8 39 4b d6 c0 38 f9 b4 00 3a 4d 7a f5 38
       0.0004119917 9.1951886e-05 0.00049097795 0.00011705291
000360 ec c1 39 39 69 75 b3 39 fe 2b a7 3a 75 98 cd 39
       0.00017715216 0.00034229018 0.00127542 0.00039214236
000370 bc 67 2d 39 49 c5 32 3a e6 ff d9 3a 33 b6 a8 39
       0.0001653721 0.0006819559 0.001663205 0.00032179206
000380 a1 34 f5 39 57 cd 32 39 5b df f8 39 c4 93 5e 39
       0.00046769253 0.00017051898 0.0004746866 0.00021226617
000390 6f 0f fa 39 a1 44 87 39 95 64 68 39 65 40 ca 39
       0.00047695215 0.0002580034 0.00022162714 0.0003857642
0003a0 f5 a2 9c 39 f3 d8 28 39 9a bf 32 39 2c 7d 41 39
       0.0002987605 0.00016102548 0.0001704678 0.00018452544
0003b0 c8 a1 36 39 c3 0a e5 38 2a f9 d0 39 d0 22 b8 39
       0.00017417141 0.000109215754 0.00039858493 0.00035121152
0003c0 7c 6d 09 3a b0 9d 1e 39 bb 5c 77 39 09 e3 17 39
       0.00052424497 0.00015126797 0.000235903 0.0001448506
0003d0 80 c0 dd 3a 62 79 2f 39 88 4a 26 39 1e 40 18 3a
       0.0016918331 0.00016734519 0.00015858759 0.0005807894
0003e0 05 4e cf 39 cd 43 2f 39 41 10 79 39 4c 8a 68 39
       0.00039540246 0.00016714558 0.00023752546 0.00022176764
0003f0 fb eb 90 39 07 d3 20 39 8b 50 ac 39 3e 21 37 39
       0.0002764164 0.00015337403 0.00032866406 0.00017464624

exp_avg f4 [10]
000000 1f 6b 76 bc 42 51 08 3b 7e b6 9d bb 96 11 b0 3b
       -0.015040188 0.0020800387 -0.0048130145 0.00537319
000010 8e 6e 15 bb 38 e2 bd 3a bf b1 b6 3b c7 f4 01 bc
       -0.0022801491 0.0014486974 0.005575388 -0.007931895
000020 af 58 82 3b 8a 2e 78 3b
       0.003977857 0.0037869536

exp_avg_sq f4 [10]
000000 a3 b2 85 3b 83 17 5a 3b b5 5a 28 3b c4 2e 4a 3b
       0.004080133 0.0033278174 0.0025688831 0.0030850628
000010 a0 4c 74 3b 8f 81 46 3b 83 2b 11 3b b3 44 2a 3b
       0.0037277117 0.0030289625 0.002215118 0.002598089
000020 c6 83 2c 3b cb 16 30 3b
       0.002632366 0.0026869054

exp_avg f4 [2, 10]
000000 44 03 8b bb 9f c8 98 3b 40 db 05 37 8a f8 ec 3b
       -0.0042423327 0.004662588 7.978466e-06 0.0072317766
000010 07 1f 07 bb c0 30 73 3a 2f ef e9 ba 88 b0 a1 b9
       -0.002061786 0.00092769787 -0.0017847772 -0.0003083984
000020 1a 1d b5 bb 53 b9 97 bb 46 03 8b 3b 9e c8 98 bb
       -0.005527151 -0.0046302467 0.0042423336 -0.0046625873
000030 80 d8 05 b7 86 f8 ec bb 0c 1f 07 3b d0 30 73 ba
       -7.977826e-06 -0.0072317747 0.002061787 -0.0009276988
000040 36 ef e9 3a 78 b0 a1 39 1b 1d b5 3b 52 b9 97 3b
       0.001784778 0.00030839792 0.0055271513 0.004630246

exp_avg_sq f4 [2, 10]
000000 f9 df e4 39 85 7c fc 39 66 f0 2f 3a 86 87 16 3a
       0.00043654421 0.0004815796 0.00067115424 0.00057422405
000010 df e2 98 39 e1 6e 8d 39 73 8c b3 39 dc 51 ad 39
       0.0002916073 0.00026976227 0.00034246183 0.0003305812
000020 e2 f9 c2 39 b3 67 b8 39 f9 df e4 39 88 7c fc 39
       0.0003718874 0.00035172477 0.00043654421 0.0004815797
000030 67 f0 2f 3a 86 87 16 3a e0 e2 98 39 e1 6e 8d 39
       0.0006711543 0.00057422405 0.00029160734 0.00026976227
000040 71 8c b3 39 da 51 ad 39 e5 f9 c2 39 b4 67 b8 39
       0.00034246178 0.00033058116 0.0003718875 0.0003517248

exp_avg f4 [2]
000000 05 24 bb 3b 00 24 bb bb
       0.005711081 -0.0057110786

exp_avg_sq f4 [2]
000000 41 27 13 3b 42 27 13 3b
       0.0022453817 0.002245382
