word2vec/save.pt (torch, 7199 bytes, 4 tensors)

weight f4 [10, 1, 2, 50]
0.21107012 -0.32777914 -0.42227674 -0.04198841 0.3371598 0.08099374 -0.1191343 -0.102943994
0.12697105 0.11020885 -0.044661064 -0.1140905 0.10945924 -0.04613013 -0.27849677 0.0145435715
0.21631256 0.21183518 0.14099254 -0.11144027 0.005756283 0.23084459 0.089608826 -0.07582556
-0.020195208 0.18105918 0.06840423 0.048660364 0.25770625 0.0066245794 0.00465809 -0.16275485
-0.027308388 0.12705462 0.014194098 -0.36101085 -0.0032554606 -0.084917575 -0.28756797 0.07832546
-0.3426119 0.10849764 -0.062263813 0.284553 -0.10117137 0.01202163 -0.06111386 -0.15899944
-0.050451726 0.013595032 -0.06255396 -0.014124418 0.14624625 0.11815682 -0.079100825 0.12847516
0.10335352 -0.1973862 0.42203447 0.31398326 -0.11444534 -0.118165076 0.27899718 -0.1446701
-0.12385342 -0.016329106 0.026014695 0.3826172 -0.24859923 -0.119019456 0.075978644 -0.5341334
0.23467828 -0.26300564 0.18839669 0.091002956 -0.22091442 -0.057106923 0.08102591 -0.2656244
-0.052150637 0.2785558 -0.18455003 0.14931543 0.0995505 -0.14341266 0.19797459 -0.05067587
-0.05540886 0.1777827 -0.25761884 0.32060033 -0.32318875 0.08055066 -0.2027356 -0.11545605
0.02937907 0.0203522 0.10867436 0.21513022 -0.10690994 -0.10368933 0.087446526 0.16587302
0.08518539 0.13922472 0.052452233 -0.2290893 0.110321596 0.5501475 -0.04135979 -0.29972088
0.14922397 -0.08524895 0.16086695 -0.11551074 -0.013200711 0.24332477 -0.39864713 0.060768582
0.27836463 -0.20743689 0.23349589 -0.18559323 0.14574552 0.3483535 -0.19896476 0.0015536612
-0.06594601 -0.2902517 0.119800314 0.40845883 -0.06652091 0.3101961 0.5839288 -0.48546767
0.2648063 -0.050560985 -0.0031718046 0.17174004 -0.26836306 0.329501 -0.10997348 0.14894387
-0.3407339 -0.133067 0.3336511 0.14194082 0.12098271 0.3693335 0.180624 0.04278525
-0.19586611 0.32664606 0.05152528 -0.14080419 -0.21748705 -0.25972608 0.056714855 -0.0072042686
-0.05044822 -0.015936669 0.054405063 -0.06978191 -0.13275708 -0.09534021 0.34406242 -0.03906465
-0.15743129 -0.2267763 0.03424221 0.29804415 -0.1622792 -0.20145446 -0.17460705 -0.084429145
0.020409666 0.21492085 0.31156635 -0.1486552 0.030060768 -0.12811197 -0.25937545 0.0060016285
0.04183 -0.049586084 -0.16754262 -0.1740477 -0.33455166 0.09891643 -0.37855792 0.29085708
-0.097294696 -0.20969181 -0.088122524 0.059793524 -0.054247607 -0.100655474 0.19529624 -0.12245967
-0.162661 -0.011991771 0.008560048 0.053731885 -0.0072333035 0.2108232 -0.0070273294 -0.07634868
0.18530571 0.34594598 -0.15592228 -0.12517427 0.2669424 -0.2550527 0.045081437 -0.14523359
-0.041578766 0.12907915 -0.2868122 0.106065355 -0.16825186 0.12224617 0.14290288 -0.30266026
0.049842294 0.2998183 -0.047480535 -0.07319857 0.23350902 -0.3314032 0.07440109 0.19717659
0.08948439 0.026195327 0.49070638 -0.33851042 -0.07903749 -0.3248892 -0.13079342 -0.013042375
-0.24618255 0.38770908 -0.10857263 -0.011948564 -0.27828464 -0.21016395 0.3752693 0.035127625
0.049174104 0.067987055 -0.100529775 0.06751331 0.07116968 0.12349524 -0.19780226 -0.051177356
00000000: c422 583e abd2 a7be a834 d8be 0afc 2bbd
00000010: 36a0 ac3e 0ce0 a53d affc f3bd 4dd4 d2bd
00000020: b304 023e 2db5 e13d 85ee 36bd 48a8 e9bd
00000030: 2b2c e03d f2f2 3cbd 2197 8ebe 2948 6e3c
00000040: 0a81 5d3e 52eb 583e 5960 103e cc3a e4bd
00000050: 349f bc3b 8662 6c3e d584 b73d 6e4a 9bbd
00000060: 6c70 a5bc 9467 393e 8417 8c3d 1750 473d
00000070: 13f2 833e 0013 d93b e4a2 983b 35a9 26be
00000080: d7b5 dfbc 9b1a 023e 5d8e 683c 6ad6 b8be
00000090: 9159 55bb 44e9 adbd 1c3c 93be 1969 a03d
000000a0: d46a afbe 0334 de3d 5708 7fbd eeb0 913e
000000b0: ef32 cfbd 5ff6 443c 8752 7abd c0d0 22be
000000c0: 78a6 4ebd b2bd 5e3c 4a1c 80bd 1a6a 67bc
000000d0: 94c1 153e 34fc f13d 9dff a1bd fe8e 033e
000000e0: 03ab d33d 9c1f 4abe e714 d83e 6ac2 a03e
000000f0: 5262 eabd 8800 f2bd b8d8 8e3e 6624 14be
00000100: dda6 fdbd 9ec4 85bc c51c d53c 67e6 c33e
00000110: cc90 7ebe 79c0 f3bd b19a 9b3d f7bc 08bf
00000120: 814f 703e ada8 86be 10eb 403e c25f ba3d
00000130: 6437 62be f3e8 69bd eaf0 a53d ecff 87be
00000140: e89b 55bd de9e 8e3e affa 3cbe 25e6 183e
00000150: 22e1 cb3d c5da 12be dab9 4a3e 8091 4fbd
00000160: 67f4 62bd ab0c 363e 9ee6 83be ba25 a43e
00000170: ff78 a5be bff7 a43d ec99 4fbe 3974 ecbd
00000180: 60ac f03c a8b9 a63c aa90 de3d 194b 5c3e
00000190: 99f3 dabd 125b d4bd 2a17 b33d 9eda 293e
000001a0: ae75 ae3d ed90 0e3e 27d8 563d 6396 6abe
000001b0: 4af0 e13d 77d6 0c3f e268 29bd 0475 99be
000001c0: 2bce 183e 0097 aebd 4eba 243e e590 ecbd
000001d0: cc47 58bc 212a 793e 7a1b ccbe 7ae8 783d
000001e0: cf85 8e3e 566a 54be 8c19 6f3e 270c 3ebe
000001f0: 503e 153e 645b b23e 6bbd 4bbe 38a4 cb3a
00000200: b40e 87bd df9b 94be de59 f53d 8421 d13e
00000210: 1d3c 88bd 06d2 9e3e 5c7c 153f 388f f8be
00000220: b194 873e 0919 4fbd 0dde 4fbb 9fdc 2f3e
00000230: e266 89be 5bb4 a83e c739 e1bd be84 183e
00000240: ac74 aebe b742 08be 51d4 aa3e ef58 113e
00000250: c8c5 f73d 4819 bd3e 7ff5 383e 963f 2f3d
00000260: 2091 48be 273e a73e 2c0c 533d f92e 10be
00000270: edb4 5ebe d1fa 84be d64d 683d c911 ecbb
00000280: cba2 4ebd 9e8d 82bc d8d7 5e3d d1e9 8ebd
00000290: 79f1 07be ba41 c3bd f328 b03e 4102 20bd
000002a0: ab35 21be 0c38 68be 8f41 0c3d 3e99 983e
000002b0: 852c 26be 144a 4ebe 31cc 32be 30e9 acbd
000002c0: 2c32 a73c 3614 5c3e a085 9f3e 1239 18be
000002d0: 0042 f63c c92f 03be dccc 84be 4fa9 c43b
000002e0: ef55 2b3d c71a 4bbd 4b90 2bbe 8f39 32be
000002f0: 5b4a abbe b294 ca3d 58d2 c1be 38eb 943e
00000300: 7142 c7bd 73b9 56be 9579 b4bd 0eea 743d
00000310: bd32 5ebd 7524 cebd bdfb 473e 23cc fabd
00000320: 9b90 26be 2279 44bc 723f 0c3c f715 5c3d
00000330: 5905 edbb 09e2 573e 8345 e6bb b25c 9cbd
00000340: c8c0 3d3e d51f b13e 17aa 1fbe af2d 00be
00000350: adac 883e 4496 82be 50a7 383d 1db8 14be
00000360: 7f4e 2abd 532d 043e 0cd9 92be cb38 d93d
00000370: 374a 2cbe 335c fa3d 2255 123e 49f6 9abe
00000380: 6f27 4c3d c981 993e f37a 42bd 22e9 95bd
00000390: fd1c 6f3e aead a9be 995f 983d a9e8 493e
000003a0: 9843 b73d 9597 d63c de3d fb3e 3d51 adbe
000003b0: 68de a1bd e157 a6be b6ee 05be b0af 55bc
000003c0: 4717 7cbe ce81 c63e 545b debd e9c3 43bc
000003d0: 537b 8ebe 3835 57be 4c23 c03e fce1 0f3d
000003e0: c96a 493d cc3c 8b3d 8ee2 cdbd 6b44 8a3d
000003f0: 69c1 913d 13eb fc3d ad8c 4abe 599f 51bd

bias f4 [10]
-0.14863962 -0.12798448 -0.0035070672 -0.04849281 0.015378947 -0.10030565 -0.12410282 -0.12598407
-0.038250573 -0.07543308
00000000: fc34 18be 5d0e 03be d3d6 65bb 66a0 46bd
00000010: fbf7 7b3c 0c6d cdbd 9f29 febd f801 01be
00000020: a2ac 1cbd a97c 9abd

weight f4 [2, 10]
0.53266144 0.82163167 0.71967703 0.8317921 -0.5510148 -0.41042772 -0.7443074 -0.45160306
-0.33872277 -0.2880003 -0.7323746 -0.4061091 -0.30413356 -0.27957302 0.613375 0.6618433
0.23270209 0.5519681 0.6483125 0.6920569
00000000: 805c 083f 7456 523f c13c 383f 54f0 543f
00000010: 4e0f 0dbf 9523 d2be ee8a 3ebf 8438 e7be
00000020: 126d adbe c674 93be e77c 3bbf 88ed cfbe
00000030: 65b7 9bbe 3224 8fbe 2506 1d3f 906e 293f
00000040: 7549 6e3e c84d 0d3f cff7 253f a42a 313f

bias f4 [2]
0.1673103 0.15638807
00000000: 6453 2b3e 3224 203e
