tfidf/checkpoint_30_epoch.pkl (torch, 64129 bytes, 12 tensors)

conv.0.weight f4 [10, 1, 2, 250]
000000 21 e1 4a be 9b f7 4e 3d 8a a5 3f be 80 fd 47 bc
       -0.19812442 0.050529104 -0.18715492 -0.012206435
000010 b5 95 ad bd 5c d3 9c bd a5 4c 9b bd 96 09 3c 3d
       -0.0847582 -0.07657501 -0.07582978 0.04590758
000020 27 a4 21 be d3 fb 84 3d 76 0c a7 bd be 77 b5 3c
       -0.15785275 0.06493344 -0.081566736 0.022151824
000030 06 3c 43 3e c8 98 13 bd 9e d4 b6 bd 04 f6 36 3e
       0.19065866 -0.036034375 -0.08927272 0.17867285
000040 a8 bb f4 bd 2c 86 dc 3d 57 91 d9 3d 55 d8 1c bd
       -0.11949855 0.10767779 0.106234245 -0.038292248
000050 71 36 6a bc 8f d3 40 3d 88 2b 53 bd 97 45 92 bd
       -0.014295206 0.047076758 -0.051555187 -0.071421795
000060 62 eb fd bc e5 96 9a 3d f7 06 03 bb 8a e9 84 3a
       -0.030996028 0.07548312 -0.0019993165 0.0010140401
000070 e1 1a d0 3d 1c da a0 ba d6 db a8 bc 42 dd 75 3d
       0.10161377 -0.0012272033 -0.020612638 0.06002546
000080 21 a3 83 3d 1c 28 fb ba ac 33 d3 bc f4 d2 83 bd
       0.06427599 -0.0019161734 -0.025781475 -0.064367205
000090 f9 fd 79 bd ae fb cc bc 9b 12 4d bd e4 25 10 bd
       -0.061033223 -0.025022354 -0.05006657 -0.035192385
0000a0 59 14 66 3d bd 40 9d 3d 02 c3 bf bc b7 25 96 bd
       0.05617175 0.076783635 -0.023408417 -0.07331412
0000b0 3d cd a6 bd f5 97 36 3d 46 40 9b 3c ec f3 b9 3c
       -0.08144615 0.04457851 0.018951546 0.022699319
0000c0 4c 77 e5 3c 9b af 75 3e f1 80 d9 bb 9d 4b 4f 3d
       0.028010987 0.2399277 -0.0066376855 0.05060922
0000d0 bc 95 60 3c 66 58 f4 3b b2 2f d0 bb 2a 03 ae bc
       0.013707574 0.007456827 -0.006353342 -0.021241743
0000e0 2e 98 39 3d af 38 b7 3a d0 c8 a9 bd e9 64 61 bd
       0.045311145 0.0013978685 -0.08290255 -0.055027876
0000f0 0f 58 0b bd 2c 32 88 bd cb f4 05 be 2e e8 92 3d
       -0.034019526 -0.066501945 -0.13081662 0.07173191
000100 1a 89 2b be 74 8c 1f bd 7b cf f5 bd 5a 41 22 3e
       -0.16751519 -0.038952306 -0.120024644 0.15845242
000110 49 b3 4d 3d 91 70 81 bd 4f 31 e3 3d 76 61 88 3d
       0.050219808 -0.063202985 0.11093389 0.06659214
000120 88 37 ce bd 23 49 86 bb 75 03 ae bb 51 9c 9a bd
       -0.100691855 -0.004098074 -0.0053104707 -0.07549346
000130 ae d3 79 bd 9a 77 42 be 51 16 84 bd 77 5b 91 bd
       -0.06099289 -0.18990937 -0.06449569 -0.07097524
000140 16 bd bd 3d b7 b6 ea 3c 40 0d 06 be 79 64 c1 3d
       0.09264581 0.028651578 -0.13090992 0.09442992
000150 53 b7 03 3b fa e4 84 bd 5c 01 90 be ca cf 81 3c
       0.0020098283 -0.06488986 -0.28126037 0.015846152
000160 75 40 c6 3d 92 d3 aa 3c d3 fb ec 3c d5 1a 42 3d
       0.09680263 0.020852838 0.028928673 0.04738887
000170 e0 4f 94 bd 50 ce 08 be bd a6 4d 3c 1f e8 05 3e
       -0.072417974 -0.13359952 0.012551961 0.13076828
000180 42 d0 69 bc ca 87 99 bd 14 e1 60 3e c5 e1 4c 3d
       -0.014270844 -0.07496603 0.2196086 0.050019998
000190 4b 97 9b 3d fc c5 23 be f2 c6 ba bc f8 18 eb bd
       0.07597216 -0.15993494 -0.022799943 -0.11479372
0001a0 4f 25 af 3d e8 3b 40 bd 70 11 87 bb 43 cf 2b bc
       0.08552038 -0.04693213 -0.0041219518 -0.010486427
0001b0 69 86 39 3d c1 0b ba 3c c3 4a 0a 3c ec aa 0f 3e
       0.0452942 0.022710683 0.008440676 0.14030045
0001c0 9f a5 12 bc 15 65 35 bb 91 51 57 bd 49 3a bd bc
       -0.00895062 -0.0027678658 -0.052568022 -0.023099082
0001d0 ae 5f 34 3d 80 ff 92 3c a2 3e 67 3d 28 af 75 be
       0.04403656 0.017944098 0.056456216 -0.23992598
0001e0 ee 9b 89 3d ac dd 57 be 3a 42 84 be c0 35 7e 3c
       0.06719194 -0.21080655 -0.25831777 0.015515745
0001f0 46 32 0f be aa 6c 02 b8 5f 99 78 3e fa b6 0b 3e
       -0.13984022 -3.1095617e-05 0.24277256 0.13644019
000200 43 a9 a5 3c dc 2a ad bd eb 6b df 3d 08 ba 8b bc
       0.020222312 -0.084554404 0.109092556 -0.01705648
000210 e5 b6 f5 bd 17 0a 8f bd 70 78 e0 bd 5c c3 06 3e
       -0.11997775 -0.06984346 -0.10960472 0.13160461
000220 e6 ee 89 3c 28 13 15 3c 42 a8 e4 3d 15 fd ac 3d
       0.016837548 0.0090988055 0.11164905 0.08446709
000230 d6 fd 02 3d c9 0b 41 bd f9 9a 86 3d c2 30 6f bc
       0.031980358 -0.04713038 0.065725274 -0.014599027
000240 54 0b 4c bd c1 c2 2d be 7f 0d 59 be ce 39 92 bd
       -0.04981549 -0.16968824 -0.21196555 -0.071399316
000250 75 9c 86 3d 06 02 8d bb 1e 72 eb 3d 3b 90 0c 3d
       0.065728106 -0.0043032197 0.114963755 0.034317236
000260 46 22 2b bd 4b e3 10 3e 4e 82 66 3d 37 b1 3a 3e
       -0.041780733 0.14149205 0.056276612 0.18231665
000270 4b 71 44 bd f1 4a 0e 3d 3d 16 75 3e 9e 9b 16 be
       -0.047959607 0.03473944 0.23934264 -0.14707801
000280 e9 3a ec 3c e9 e5 09 be c0 67 95 bc ae 70 0e 3e
       0.028836684 -0.1346661 -0.018237948 0.13910171
000290 46 e4 c4 3d b3 42 49 be 24 e0 9a 3e 4a e3 c9 3d
       0.09613852 -0.1965435 0.3024913 0.09857805
0002a0 18 d3 24 be 8a 8a b3 bd 90 d9 78 3d 31 d2 24 ba
       -0.16096151 -0.087666586 0.06075436 -0.00062874245
0002b0 14 be 53 3e c9 37 00 3e 60 f2 f3 bd 16 3b f5 3b
       0.20677978 0.1252128 -0.11911464 0.0074838502
0002c0 0f 3a 72 3e c3 9c 77 3e 49 58 34 3c 26 ec b9 bd
       0.2365496 0.24180894 0.011007377 -0.09078245
0002d0 21 7e 49 bd 73 3f 87 3d d0 91 de bd c5 ee 80 bb
       -0.04919255 0.06603899 -0.10867655 -0.0039347135
0002e0 5e 3e 65 3e 7d a1 67 bd a6 53 40 be 7d f3 2c 3e
       0.22387072 -0.05655049 -0.1878191 0.16889758
0002f0 1e f0 fc bc 81 fb 5e 3e 81 9b 37 be ae 3c 82 bd
       -0.030876216 0.21775629 -0.17930414 -0.0635923
000300 cb 0a 18 3e 68 43 30 3e e2 c4 45 3e 59 89 ae be
       0.14847867 0.17213213 0.19313386 -0.34089163
000310 de e1 31 3e 5f 24 d7 bd 8b 6a 25 bd 58 bf 15 be
       0.17371318 -0.10504984 -0.04038481 -0.14623773
000320 8a 8d 81 3e 20 e7 99 bd cb 81 68 3e 6f f2 55 3c
       0.25303298 -0.07514787 0.22705762 0.013058289
000330 cb a3 51 bc 34 01 ba bd f3 ce f1 bd d2 06 91 3d
       -0.012795399 -0.09082261 -0.118070506 0.07081379
000340 7b e4 c6 3d bf 43 c1 bd 3a 9e d7 3c 39 4f 9b 3c
       0.09711548 -0.0943675 0.026320565 0.018958675
000350 13 29 3d be fe a4 d6 3a 2f 80 d8 bd 4a e7 c8 be
       -0.184727 0.0016376076 -0.10571324 -0.3923896
000360 27 d3 86 be 7d ce 8f 3e fc 00 5c 3e ec ae 25 be
       -0.2633297 0.28087226 0.2148475 -0.16180009
000370 45 f3 17 3e 52 d2 47 3e e1 a6 91 bd d6 ef 39 3d
       0.14838894 0.19513825 -0.07111908 0.04539474
000380 a7 b5 4d be 1c 38 13 3e 96 c4 8d 3e 88 fe 95 3e
       -0.20088826 0.14376873 0.27689046 0.29295754
000390 8a ca 81 be 8f 66 bc bd 84 13 b9 3d 79 49 f9 bd
       -0.25349838 -0.09199249 0.090369254 -0.12172217
0003a0 f9 3b 10 3d 1b 53 7e 3d 07 12 16 be 2f 2c d7 bd
       0.035213444 0.062090974 -0.14655314 -0.10506474
0003b0 03 32 6c 3e a5 16 8b be b8 cc 91 3d 43 71 38 3d
       0.23065953 -0.27165714 0.07119125 0.04502989
0003c0 3e a2 06 3d d4 de 8d bc e2 eb 31 3d 12 28 89 3d
       0.03286957 -0.017318167 0.043437846 0.06697096
0003d0 cf 98 5f 3e 33 24 53 bd 1e c2 90 3d 8f 16 f7 bd
       0.21835636 -0.051548194 0.07068275 -0.120648496
0003e0 a1 0d 53 3d 07 43 12 be 2f e4 05 be 8f ba a6 3d
       0.05152667 -0.14283381 -0.13075326 0.08141052
0003f0 08 cc 0f be f4 2f 12 3d f6 2b 4b bd d1 93 65 3d
       -0.14042675 0.035690263 -0.04960247 0.05604917

conv.0.bias f4 [10]
000000 71 16 58 c0 b0 b7 49 c0 b1 a0 2b c0 d6 ff 36 c0
       -3.3763697 -3.1518364 -2.6816828 -2.859365
000010 87 32 26 c0 0e 5b 15 c0 b3 f1 42 c0 5e 2e 33 c0
       -2.596834 -2.3336825 -3.0460021 -2.799705
000020 20 f6 5b c0 47 47 28 c0
       -3.4368973 -2.6293504

fc.weight f4 [2, 10]
000000 c0 ab 89 3e 27 8a 50 3d 7c 19 5a bc 8c 86 96 3d
       0.26888847 0.050913002 -0.01331174 0.073498815
000010 99 f9 01 3d 64 4c 08 be 61 d6 21 3c 28 67 79 be
       0.031732175 -0.1331039 0.009877772 -0.24355757
000020 b7 fb 82 be bd 65 36 be 90 be a0 3e 51 f1 96 ba
       -0.25582668 -0.17812248 0.31395388 -0.001151601
000030 1c e0 b6 38 64 02 48 3d 38 c1 a4 bd 21 e1 11 be
       8.72018e-05 0.048830405 -0.08044666 -0.14246036
000040 aa a5 29 3d ae af 86 be 40 60 72 be 25 84 24 be
       0.041417755 -0.26305908 -0.23669529 -0.16066034

fc.bias f4 [2]
000000 ce 5c 4c bd 3c d0 10 3e
       -0.049893193 0.14141935

exp_avg f4 [10, 1, 2, 250]
000000 17 8e ba bb 8d 6f 16 3b 7e af b9 3b 9c 90 bd ba
       -0.005693208 0.0022954673 0.0056666723 -0.0014462653
000010 80 cc 54 ba 24 9a f0 b9 ba d9 1c 3a 23 45 41 3a
       -0.0008117631 -0.0004589121 0.00059833715 0.0007372668
000020 28 47 43 3a b6 a1 b7 ba 55 b2 a0 3b 3b 3c e3 ba
       0.0007449263 -0.0014009986 0.0049040713 -0.0017336676
000030 a7 7b de ba a4 90 e1 3a 87 6a d1 39 58 42 06 bb
       -0.0016974107 0.0017209244 0.00039942955 -0.0020486321
000040 82 dc 22 3b 2d 51 29 ba 8e 0c fd b8 71 c2 1b bb
       0.0024850671 -0.00064589345 -0.000120663186 -0.002376702
000050 3c 74 1b ba 4e d1 db b9 65 2a e5 39 f0 b7 c9 b9
       -0.0005930101 -0.0004192688 0.0004370987 -0.00038474752
000060 5c a0 a0 b8 62 17 da 39 af a6 53 ba 7d fa ef b8
       -7.659264e-05 0.00041597622 -0.0008073849 -0.00011443065
000070 d7 96 1f ba 1e 5f df b8 df 9b 95 b9 a6 4b 88 39
       -0.00060878455 -0.000106511856 -0.00028535628 0.00025996304
000080 c2 de 29 38 76 14 29 b9 07 b2 3a 3a 08 16 37 3a
       4.05002e-05 -0.00016124718 0.0007121865 0.0006984179
000090 b6 1a ec 39 0b 69 27 3a be 53 a7 39 b7 b9 02 3a
       0.0004503333 0.0006386197 0.00031915115 0.000498678
0000a0 86 13 8d ba 8a e1 35 39 60 49 86 36 f5 04 cd b9
       -0.0010763265 0.00017345525 4.002053e-06 -0.0003910434
0000b0 ab ca 36 3a a8 01 cc b8 23 28 9b 3a de 7a 95 b9
       0.0006972949 -9.7277865e-05 0.0011837523 -0.00028511038
0000c0 d2 8d 10 bb 16 04 17 ba 74 75 ac b7 cb 62 97 b9
       -0.0022057188 -0.0005760802 -2.0558691e-05 -0.0002887457
0000d0 ed a3 9d ba 8b 3a 19 3a ab c2 24 ba d4 9c 8e b7
       -0.0012027003 0.00058452104 -0.00062851113 -1.7000748e-05
0000e0 7a 41 5b 3a 5c b8 2f ba 00 d5 43 37 14 28 2d ba
       0.0008363944 -0.0006703192 1.1672499e-05 -0.00066053984
0000f0 f2 a5 9c 3a 69 b3 97 ba 36 db 7f 39 00 6d 37 3a
       0.0011951311 -0.0011573854 0.00024400358 0.0006997138
000100 98 37 14 3a 1c 38 a8 b8 18 ca e8 39 e0 1c aa ba
       0.0005654036 -8.0213154e-05 0.0004440106 -0.0012978576
000110 b8 8d ef 39 b0 f5 2f 3a c3 f2 af 3a a4 92 ef 38
       0.0004569122 0.00067123305 0.0013423789 0.00011423722
000120 84 1f 8b 3a d3 a5 29 bb 22 9b 43 3a 09 fc 07 3a
       0.0010614251 -0.0025886192 0.0007461776 0.00051873975
000130 63 80 56 38 c9 18 99 3a 79 e0 14 b8 9e 3f 9d 3a
       5.1141145e-05 0.001168036 -3.5495006e-05 0.0011997109
000140 32 d6 0e ba 60 09 b2 ba ca fd bf 39 8a 32 1c 39
       -0.00054487877 -0.0013583116 0.00036619446 0.00014896147
000150 f0 ae c0 ba 21 3f c8 39 69 c7 61 b9 d6 cb 68 ba
       -0.0014700573 0.00038194007 -0.00021531958 -0.00088804716
000160 22 d9 c8 b9 08 16 10 3b 4e 76 f3 b8 50 b6 53 b9
       -0.0003830875 0.0021985788 -0.00011609179 -0.00020190445
000170 c0 94 d8 38 ca 92 0e 3b 29 f4 d2 b9 89 58 2e ba
       0.000103273895 0.0021754974 -0.00040236235 -0.0006650766
000180 94 78 4d b9 3e 91 d8 39 af 39 60 3a 47 14 5e b9
       -0.00019595242 0.00041306944 0.00085535174 -0.00021179124
000190 89 26 a0 ba c4 fc 06 3b 05 bd 0e ba cc a2 4a 3a
       -0.0012218516 0.0020597437 -0.0005445036 0.0007729947
0001a0 e5 f8 d0 3a 7c a6 bb 39 cc 7f 9b b9 0a 15 5a b9
       0.0015943317 0.0003579146 -0.0002965912 -0.00020797938
0001b0 75 42 64 b9 0e 22 b8 39 6d e9 28 ba 68 43 01 b8
       -0.00021768532 0.00035120588 -0.00064434746 -3.0818774e-05
0001c0 0f 04 8a 39 d2 6e 08 3b ef 18 9c b9 34 6c 30 ba
       0.00026324435 0.0020818007 -0.00029773216 -0.0006729991
0001d0 67 42 c8 ba 9a 1a 6b bb 56 78 37 bb 07 9b 00 3a
       -0.0015278579 -0.003587401 -0.002799531 0.00049059134
0001e0 72 d0 ba b9 8c d6 32 3a 13 cb e0 3a 7e c9 47 b9
       -0.00035631988 0.0006822131 0.0017150365 -0.0001905318
0001f0 a8 65 8b 3a fc 9d 01 39 7c a1 ce ba c0 03 33 ba
       0.0010635154 0.00012361252 -0.0015764679 -0.0006828867
000200 d4 9f db 39 93 2e ea 39 2c b9 75 ba 60 bb 63 37
       0.00041890016 0.00044666659 -0.0009373601 1.3573881e-05
000210 71 4a 02 3b 4b fc 0a 39 ba 83 5f 39 38 11 5a 39
       0.0019880796 0.00013254692 0.00021316009 0.00020796515
000220 3a 6c d3 3a 96 23 53 3a 6f c9 28 bb 11 bc 8d ba
       0.0016130276 0.0008054314 -0.002575483 -0.0010813494
000230 54 de 05 3b 68 00 22 3a e5 a1 3c ba fd 8b b6 ba
       0.0020426707 0.000617987 -0.0007195755 -0.0013927218
000240 fa c1 cc 39 f2 d8 1f 3b b4 fe 19 ba e6 8d c1 3a
       0.00039054436 0.0024390784 -0.00058744405 0.001476702
000250 46 1e 97 38 17 e5 ff ba ca 84 0c bb da 7b cc b9
       7.20588e-05 -0.001952323 -0.0021441453 -0.0003900219
000260 47 12 ef 3a 89 08 8e b9 6a da 73 ba c3 8a c2 ba
       0.00182397 -0.0002709071 -0.00093022606 -0.001484238
000270 ac 42 55 ba a0 12 06 3a cb ae 16 3b 03 61 85 3a
       -0.000813524 0.00051144697 0.0022992368 0.0010176006
000280 3a 9b 83 ba de 07 00 39 90 24 80 ba 4f 40 52 ba
       -0.0010040768 0.00012209962 -0.0009776521 -0.0008020447
000290 f0 6f 11 3a ac 7f 14 3b ee 58 1f bb 8e e8 dc b9
       0.0005547991 0.0022659106 -0.002431448 -0.00042134937
0002a0 9c dd 73 ba 10 bb 4a 39 d8 e2 54 38 f1 20 1e 3a
       -0.0009302737 0.00019333907 5.0756003e-05 0.00060321303
0002b0 59 21 19 bb 22 20 d4 3a ce 80 0c 3a a8 ac 44 3b
       -0.0023365824 0.0016183893 0.00053597696 0.0030010138
0002c0 a2 c9 1e ba c7 ae 1e ba 23 d7 79 b9 ba 12 fd 39
       -0.00060572673 -0.00060532655 -0.00023826635 0.00048269873
0002d0 50 da 5d bb 57 b4 04 3b cc 51 57 ba b4 67 55 ba
       -0.0033852048 0.0020249092 -0.0008213788 -0.0008140758
0002e0 5e 07 5c bb fd 18 16 bb ac 3d b6 3a f9 a7 df ba
       -0.0033573727 -0.0022903078 0.0013903878 -0.001706361
0002f0 02 c1 ad 3a d4 ca 46 ba 05 33 8c 3b aa 0c 9d ba
       0.0013256373 -0.00075833243 0.004278543 -0.0011981924
000300 5a 48 b8 3a d7 8f 54 3b 3b a1 f3 bb 68 02 bb 3b
       0.0014059648 0.0032434368 -0.0074349917 0.005707074
000310 6c 9a 15 3c 9c 31 7a 3b 92 8d 19 3b 35 81 85 bb
       0.009131055 0.0038176542 0.002343033 -0.0040742406
000320 73 e3 84 3a 37 fe e9 ba 28 32 83 bb fb 96 ad 3c
       0.0010138586 -0.0017852251 -0.004003782 0.021190157
000330 68 fc a2 3a db 41 0e bc 6e 9d c9 bb 6a 51 d2 3b
       0.0012434842 -0.008682693 -0.0061528003 0.0064183967
000340 fc 85 52 3b 23 b8 6f bc 1f f8 a2 bb 1b 72 93 3c
       0.0032123318 -0.014631304 -0.004973426 0.017998746
000350 eb a2 eb 3b c2 1b 89 ba ba b9 f3 ba 95 8b a0 bb
       0.007191052 -0.0010460543 -0.001859478 -0.004899452
000360 24 d0 56 3a 75 15 72 3a 4b 99 aa 3b 0b 9a 06 3a
       0.00081944675 0.0009234765 0.005206262 0.00051346485
000370 16 54 c4 3b 0e bd 79 39 d5 a3 60 3b a2 7e fe 39
       0.005991469 0.00023816919 0.003427734 0.00048541004
000380 77 c1 21 bb 52 ab b5 3a d7 aa 19 bb 40 d0 bb bb
       -0.0024681964 0.0013860262 -0.0023447776 -0.0057316124
000390 b6 a2 1d 3b 02 96 ad ba fd bc a5 bb 23 5f 60 bb
       0.0024053282 -0.0013243558 -0.0050579295 -0.0034236393
0003a0 75 e2 ac 39 08 39 37 3b 57 af 1d 3b a3 2f c3 ba
       0.0003297512 0.0027957577 0.002406081 -0.0014891516
0003b0 0c 8a 71 38 e5 59 cf ba 18 11 c5 b9 12 22 e8 b9
       5.7587444e-05 -0.0015819637 -0.00037587504 -0.00044275873
0003c0 a5 a3 5e 39 53 8b 26 ba 24 3f 58 3a 12 84 c7 39
       0.00021232532 -0.00063531584 0.0008249155 0.00038054638
0003d0 54 33 0d bb 1f 18 4e bb 4c fd b8 ba 07 84 9b ba
       -0.0021545487 -0.0031447483 -0.0014113574 -0.0011864909
0003e0 d1 08 a8 3a 9a b5 08 bb 03 ab e4 bc d6 82 d7 3b
       0.001282001 -0.0020860196 -0.027913576 0.006576876
0003f0 64 93 f1 3b 7c b1 00 bb b6 e8 b9 3a 3e 26 99 3a
       0.0073723067 -0.001963704 0.0014183733 0.0011684371

exp_avg_sq f4 [10, 1, 2, 250]
000000 68 0c ba 3b ed e2 1c 3a 3a 96 a6 39 45 1d 15 38
       0.0056777485 0.00059847423 0.00031773915 3.5551628e-05
000010 d5 11 de 38 df 64 23 39 a9 09 07 38 3c a7 ce 37
       0.000105891064 0.00015582469 3.2195505e-05 2.4634988e-05
000020 a0 91 c8 37 45 cc 3d 38 0b 32 01 39 a1 29 1b 38
       2.390967e-05 4.5251352e-05 0.00012321041 3.699365e-05
000030 51 ce c5 38 82 b3 2d 38 c6 60 4a 38 9e e5 1d 38
       9.4321214e-05 4.1413594e-05 4.825068e-05 3.7645565e-05
000040 b1 03 d3 38 a0 17 95 38 c0 60 c9 38 d3 6e 86 38
       0.000100619516 7.109274e-05 9.602448e-05 6.4102605e-05
000050 5d ea 89 38 e3 78 c1 38 48 22 81 38 bd ee 00 38
       6.5763226e-05 9.225474e-05 6.157585e-05 3.073992e-05
000060 0f 71 06 39 4d b2 0e 39 5c f2 6e 39 27 4f 0c 39
       0.00012821353 0.00013608598 0.00022787735 0.00013380927
000070 25 ed 64 39 62 3e 2a 39 22 10 15 39 a3 10 2b 38
       0.00021832118 0.00016235703 0.00014215757 4.078507e-05
000080 0b c5 19 39 f5 65 29 38 0d 7b 42 38 55 f0 87 37
       0.00014664621 4.0387695e-05 4.6367804e-05 1.6205167e-05
000090 2a fb 88 38 28 db 3b 37 de 3b 17 38 54 fe 24 38
       6.531768e-05 1.1197095e-05 3.605696e-05 3.933751e-05
0000a0 11 28 3c 38 45 8f 3c 39 5c d0 e9 37 f7 81 e6 37
       4.4860008e-05 0.00017982449 2.787279e-05 2.7478656e-05
0000b0 da 87 96 38 05 2e 84 39 93 0b 16 39 4e 46 21 39
       7.177862e-05 0.0002521129 0.00014309426 0.00015380347
0000c0 0a 6e d4 38 f5 26 e2 38 0d fe e9 37 f3 23 59 38
       0.00010129444 0.00010783776 2.7894066e-05 5.1770312e-05
0000d0 a5 68 9a 38 05 06 ec 37 01 23 b8 39 c8 a5 01 38
       7.362784e-05 2.8136195e-05 0.00035121295 3.0910393e-05
0000e0 56 2f 26 39 2f 6e cb 38 3f fc e7 37 3e e8 43 39
       0.00015848628 9.7003176e-05 2.7654807e-05 0.00018683166
0000f0 0a 6c b5 39 5b c0 bd 37 ad 4d 56 38 a7 56 e3 37
       0.00034603506 2.2620128e-05 5.1093917e-05 2.710086e-05
000100 b8 58 86 38 18 63 e1 38 6e 00 83 37 8a 28 bc 38
       6.406143e-05 0.00010747294 1.5616617e-05 8.9720896e-05
000110 61 64 f0 39 5b ee bf 37 03 e5 3d 38 c9 da 4a 39
       0.00045851155 2.2879967e-05 4.5274395e-05 0.00019345725
000120 61 73 32 39 d7 19 0c 39 d4 7c 06 38 71 d9 ca 37
       0.00017018385 0.00013361067 3.2064345e-05 2.418153e-05
000130 6f 56 1c 38 5b 65 1a 38 d9 bc 07 38 34 d4 4f 37
       3.7273796e-05 3.6810856e-05 3.2362386e-05 1.2387569e-05
000140 29 62 23 37 60 43 58 38 0c 8b 00 38 67 6e c6 37
       9.738412e-06 5.156116e-05 3.0647076e-05 2.365485e-05
000150 de 55 93 38 ae cf f8 37 5f fb 8e 38 93 da 44 38
       7.0255e-05 2.9660612e-05 6.817909e-05 4.6933605e-05
000160 15 be cc 37 e8 a0 d1 38 ed ba 0d 38 a5 9c 26 37
       2.4407209e-05 9.995868e-05 3.3791108e-05 9.930843e-06
000170 75 38 85 38 55 53 ae 38 12 07 cf 38 55 9c 86 38
       6.35245e-05 8.312488e-05 9.871846e-05 6.418737e-05
000180 bf 98 be 38 67 4f e2 37 86 dd 92 39 87 19 f9 38
       9.088357e-05 2.6978274e-05 0.00028012338 0.00011878
000190 f5 b2 5b 38 18 bc 2c 39 f1 ad 10 3a 46 ae e3 38
       5.2380336e-05 0.00016473269 0.00055190834 0.000108566644
0001a0 17 9d ae 38 38 11 2e 39 bf a2 85 38 10 39 c8 37
       8.326227e-05 0.00016600348 6.372248e-05 2.386843e-05
0001b0 0c 58 ac 39 ab 4c 32 39 9d 5a f0 39 2d 85 fb 38
       0.00032871997 0.00017003964 0.0004584388 0.000119934186
0001c0 1d 9f 5a 38 09 0c a4 37 33 06 d6 38 5c 40 54 38
       5.2123436e-05 1.9555928e-05 0.0001020547 5.0604678e-05
0001d0 46 18 d0 39 e8 9a be 39 f8 43 a6 39 2b ac fb 37
       0.00039690937 0.00036355038 0.00031712628 3.0001704e-05
0001e0 d2 e9 f4 37 83 44 a1 38 c3 86 d4 37 79 7e 17 39
       2.9195948e-05 7.6898395e-05 2.5335123e-05 0.00014447597
0001f0 d2 1b 11 38 35 0c 34 38 f7 a6 03 38 45 9d ec 38
       3.4596604e-05 4.2926713e-05 3.1388332e-05 0.00011282651
000200 ea d1 e7 37 d8 e0 8f 37 9d 09 73 37 6e 7f 20 38
       2.7635095e-05 1.715163e-05 1.4486167e-05 3.826565e-05
000210 85 cf a3 37 41 fa 3e 37 ad ce 8a 37 93 16 c4 37
       1.9527748e-05 1.1383149e-05 1.6547123e-05 2.3375533e-05
000220 1c 95 9a 37 bd 21 5a 39 80 fa 2c 3a 34 32 58 38
       1.8427665e-05 0.00020802669 0.00065986067 5.154517e-05
000230 9e e3 90 39 10 d8 c5 38 fb 55 2c 38 eb 5c a6 38
       0.00027635408 9.433937e-05 4.108807e-05 7.932804e-05
000240 10 1f c2 38 67 6a 62 38 bd ca a7 37 e9 35 38 39
       9.256427e-05 5.3981694e-05 2.0002359e-05 0.0001756769
000250 ae 7b ba 38 81 07 40 38 df 85 de 38 b3 ba a1 37
       8.892208e-05 4.5783356e-05 0.0001061072 1.9279634e-05
000260 05 7c 5b 38 41 b6 c8 38 66 5a 9d 38 73 6d b1 37
       5.232917e-05 9.5706906e-05 7.5031814e-05 2.115101e-05
000270 99 79 2a 38 c4 41 2e 38 fc 8f 0a 38 f2 8c 02 38
       4.0644405e-05 4.154608e-05 3.303586e-05 3.112568e-05
000280 e2 d0 41 38 06 0a 61 37 3e 40 bf 37 d1 66 8e 37
       4.6209323e-05 1.3413379e-05 2.279889e-05 1.6975597e-05
000290 82 1d 8a 37 3d 6b ce 37 38 47 d5 37 2b 95 6e 37
       1.6464623e-05 2.460705e-05 2.5424742e-05 1.4220636e-05
0002a0 58 8c e6 37 c3 bc 6e 37 bd 00 0f 38 b5 45 7e 38
       2.748349e-05 1.4229855e-05 3.4094544e-05 6.062324e-05
0002b0 16 ed 6a 37 18 8d 66 38 48 8b 8d 37 73 3a 18 38
       1.4002688e-05 5.4967677e-05 1.6873368e-05 3.629406e-05
0002c0 83 89 ae 38 30 b3 8c 38 d2 83 1c 38 e3 f2 1e 38
       8.32258e-05 6.7090965e-05 3.7316066e-05 3.789634e-05
0002d0 67 12 e9 38 48 3d 44 38 e3 c0 52 38 7c 95 0d 39
       0.000111137335 4.6787114e-05 5.024754e-05 0.00013502495
0002e0 d3 05 2f 39 cc 98 15 39 dd 77 85 38 7e e9 4d 38
       0.0001669147 0.00014266669 6.3642605e-05 4.9093265e-05
0002f0 f4 56 dc 37 f7 40 5f 38 c5 72 08 39 a9 12 ed 37
       2.6266534e-05 5.3227846e-05 0.00013012726 2.8261291e-05
000300 87 ea 77 39 1f 4a b7 38 e1 e1 86 39 a9 f9 18 3a
       0.00023643124 8.739926e-05 0.00025726765 0.0005835542
000310 bb d1 d0 39 0e aa 22 3a 2b f9 b8 39 9b f6 5a 39
       0.00039829113 0.00062051497 0.0003528086 0.00020881968
000320 13 4a 12 39 9d 2b d8 38 57 53 08 39 38 b1 b9 39
       0.0001395124 0.00010307806 0.00013001017 0.00035417988
000330 6d 5d 72 38 b2 e4 39 38 c8 04 43 39 82 89 95 38
       5.7784306e-05 4.4320426e-05 0.0001859843 7.1304865e-05
000340 2d 8f 01 39 a2 72 c2 39 b3 87 74 39 d7 ed d6 39
       0.00012355736 0.00037087972 0.00023320205 0.00040994465
000350 c7 6a 34 39 69 9e 49 39 c8 cf 59 39 a9 5d 79 38
       0.00017205915 0.00019227866 0.00020772137 5.9453454e-05
000360 ba 8e 16 39 31 59 3b 38 97 31 1c 39 6c ed 28 38
       0.00014358285 4.466734e-05 0.00014895793 4.0275438e-05
000370 c0 eb 9f 38 6e 1e 9b 38 68 98 47 39 a4 68 69 39
       7.625623e-05 7.396644e-05 0.00019034895 0.00022259593
000380 71 45 3d 38 d6 50 8d 38 78 c5 4d 38 31 70 44 39
       4.5125784e-05 6.738461e-05 4.9059716e-05 0.00018733811
000390 5a 81 76 38 6e d4 32 38 0c 9d 82 39 d9 ab 97 39
       5.877144e-05 4.2636348e-05 0.0002491254 0.00028929
0003a0 40 bd 28 38 af 11 02 39 cf c4 c6 38 2f 7d 51 38
       4.0230574e-05 0.00012404354 9.478034e-05 4.994607e-05
0003b0 46 4c 43 38 fe 4f 2c 39 84 0e f6 37 25 5a 92 38
       4.6562658e-05 0.00016432998 2.9332245e-05 6.978613e-05
0003c0 84 01 ee 37 8d cc 4d 38 61 a8 cc 38 11 15 03 38
       2.8372517e-05 4.906631e-05 9.758841e-05 3.1252453e-05
0003d0 34 c4 a5 38 37 81 e4 39 e0 bc 33 38 21 af 00 39
       7.904359e-05 0.0004358382 4.285283e-05 0.00012272272
0003e0 f9 cc 99 37 6d 6f 05 3a ff 9d 89 3c 01 fe 46 3a
       1.833447e-05 0.0005090151 0.016798971 0.000759095
0003f0 5d 21 70 3a bc 58 d1 39 62 5a 0d 39 7d 29 d9 39
       0.0009160245 0.000399297 0.00013480478 0.00041420377

exp_avg f4 [10]
000000 0c 0d 86 ba 04 05 b7 b9 40 f2 23 3a 5e b7 66 b9
       -0.0010227277 -0.00034908217 0.00062540546 -0.00022002819
000010 d0 4b 94 ba 86 43 d0 b8 ca 49 11 3a 28 c9 86 b8
       -0.0011314098 -9.93079e-05 0.00055423065 -6.427086e-05
000020 b4 32 61 39 6b f2 08 3a
       0.0002147656 0.00052241114

exp_avg_sq f4 [10]
000000 ba 5d 20 37 66 be 85 37 a2 d5 70 35 be f9 3a 36
       9.558566e-06 1.5943497e-05 8.9717844e-07 2.786153e-06
000010 14 28 9d 38 33 f4 82 35 3b c7 d4 36 a3 91 12 36
       7.4938085e-05 9.756826e-07 6.341286e-06 2.1840467e-06
000020 b2 44 ee 35 b3 9c b5 35
       1.7752375e-06 1.3531156e-06

exp_avg f4 [2, 10]
000000 4d d8 24 3e 7e be 65 bd df 3c 9e be 40 c1 6f be
       0.16098137 -0.05608987 -0.30905816 -0.23413563
000010 30 d0 ab ba ce 1e 0c bf fc f7 39 be ee 54 eb 3c
       -0.0013108309 -0.54734504 -0.18161005 0.028727021
000020 d8 15 1c bc f4 fd 52 be 4d d8 24 be 82 be 65 3d
       -0.009526692 -0.20604688 -0.16098137 0.056089886
000030 df 3c 9e 3e 41 c1 6f 3e 50 d0 ab 3a cf 1e 0c 3f
       0.30905816 0.23413564 0.0013108347 0.5473451
000040 fc f7 39 3e f6 54 eb bc a4 15 1c 3c f5 fd 52 3e
       0.18161005 -0.028727036 0.009526644 0.2060469

exp_avg_sq f4 [2, 10]
000000 54 99 26 3e 03 bf 29 3e 7f 92 0d 40 2c f0 51 3f
       0.16269428 0.16576771 2.2120664 0.820071
000010 54 69 0c 3d ba 95 2a 40 0c ca 8a 3e 4c 08 95 3f
       0.034280136 2.6653886 0.27107275 1.1643157
000020 ed 38 7e 3f 39 e2 88 3f 53 99 26 3e 02 bf 29 3e
       0.9930561 1.0694038 0.16269426 0.1657677
000030 7f 92 0d 40 2d f0 51 3f 54 69 0c 3d bb 95 2a 40
       2.2120664 0.82007104 0.034280136 2.6653888
000040 0d ca 8a 3e 4c 08 95 3f ed 38 7e 3f 38 e2 88 3f
       0.27107278 1.1643157 0.9930561 1.0694036

exp_avg f4 [2]
000000 f5 22 11 bc ef 22 11 3c
       -0.008858432 0.0088584265

exp_avg_sq f4 [2]
000000 29 22 42 3b 29 22 42 3b
       0.0029622412 0.0029622412
