tfidf/save.pt (torch, 23199 bytes, 4 tensors)

weight f4 [10, 1, 2, 250]
-0.19812442 0.050529104 -0.18715492 -0.012206435 -0.0847582 -0.07657501 -0.07582978 0.04590758
-0.15785275 0.06493344 -0.081566736 0.022151824 0.19065866 -0.036034375 -0.08927272 0.17867285
-0.11949855 0.10767779 0.106234245 -0.038292248 -0.014295206 0.047076758 -0.051555187 -0.071421795
-0.030996028 0.07548312 -0.0019993165 0.0010140401 0.10161377 -0.0012272033 -0.020612638 0.06002546
0.06427599 -0.0019161734 -0.025781475 -0.064367205 -0.061033223 -0.025022354 -0.05006657 -0.035192385
0.05617175 0.076783635 -0.023408417 -0.07331412 -0.08144615 0.04457851 0.018951546 0.022699319
0.028010987 0.2399277 -0.0066376855 0.05060922 0.013707574 0.007456827 -0.006353342 -0.021241743
0.045311145 0.0013978685 -0.08290255 -0.055027876 -0.034019526 -0.066501945 -0.13081662 0.07173191
-0.16751519 -0.038952306 -0.120024644 0.15845242 0.050219808 -0.063202985 0.11093389 0.06659214
-0.100691855 -0.004098074 -0.0053104707 -0.07549346 -0.06099289 -0.18990937 -0.06449569 -0.07097524
0.09264581 0.028651578 -0.13090992 0.09442992 0.0020098283 -0.06488986 -0.28126037 0.015846152
0.09680263 0.020852838 0.028928673 0.04738887 -0.072417974 -0.13359952 0.012551961 0.13076828
-0.014270844 -0.07496603 0.2196086 0.050019998 0.07597216 -0.15993494 -0.022799943 -0.11479372
0.08552038 -0.04693213 -0.0041219518 -0.010486427 0.0452942 0.022710683 0.008440676 0.14030045
-0.00895062 -0.0027678658 -0.052568022 -0.023099082 0.04403656 0.017944098 0.056456216 -0.23992598
0.06719194 -0.21080655 -0.25831777 0.015515745 -0.13984022 -3.1095617e-05 0.24277256 0.13644019
0.020222312 -0.084554404 0.109092556 -0.01705648 -0.11997775 -0.06984346 -0.10960472 0.13160461
0.016837548 0.0090988055 0.11164905 0.08446709 0.031980358 -0.04713038 0.065725274 -0.014599027
-0.04981549 -0.16968824 -0.21196555 -0.071399316 0.065728106 -0.0043032197 0.114963755 0.034317236
-0.041780733 0.14149205 0.056276612 0.18231665 -0.047959607 0.03473944 0.23934264 -0.14707801
0.028836684 -0.1346661 -0.018237948 0.13910171 0.09613852 -0.1965435 0.3024913 0.09857805
-0.16096151 -0.087666586 0.06075436 -0.00062874245 0.20677978 0.1252128 -0.11911464 0.0074838502
0.2365496 0.24180894 0.011007377 -0.09078245 -0.04919255 0.06603899 -0.10867655 -0.0039347135
0.22387072 -0.05655049 -0.1878191 0.16889758 -0.030876216 0.21775629 -0.17930414 -0.0635923
0.14847867 0.17213213 0.19313386 -0.34089163 0.17371318 -0.10504984 -0.04038481 -0.14623773
0.25303298 -0.07514787 0.22705762 0.013058289 -0.012795399 -0.09082261 -0.118070506 0.07081379
0.09711548 -0.0943675 0.026320565 0.018958675 -0.184727 0.0016376076 -0.10571324 -0.3923896
-0.2633297 0.28087226 0.2148475 -0.16180009 0.14838894 0.19513825 -0.07111908 0.04539474
-0.20088826 0.14376873 0.27689046 0.29295754 -0.25349838 -0.09199249 0.090369254 -0.12172217
0.035213444 0.062090974 -0.14655314 -0.10506474 0.23065953 -0.27165714 0.07119125 0.04502989
0.03286957 -0.017318167 0.043437846 0.06697096 0.21835636 -0.051548194 0.07068275 -0.120648496
0.05152667 -0.14283381 -0.13075326 0.08141052 -0.14042675 0.035690263 -0.04960247 0.05604917
00000000: 21e1 4abe 9bf7 4e3d 8aa5 3fbe 80fd 47bc
00000010: b595 adbd 5cd3 9cbd a54c 9bbd 9609 3c3d
00000020: 27a4 21be d3fb 843d 760c a7bd be77 b53c
00000030: 063c 433e c898 13bd 9ed4 b6bd 04f6 363e
00000040: a8bb f4bd 2c86 dc3d 5791 d93d 55d8 1cbd
00000050: 7136 6abc 8fd3 403d 882b 53bd 9745 92bd
00000060: 62eb fdbc e596 9a3d f706 03bb 8ae9 843a
00000070: e11a d03d 1cda a0ba d6db a8bc 42dd 753d
00000080: 21a3 833d 1c28 fbba ac33 d3bc f4d2 83bd
00000090: f9fd 79bd aefb ccbc 9b12 4dbd e425 10bd
000000a0: 5914 663d bd40 9d3d 02c3 bfbc b725 96bd
000000b0: 3dcd a6bd f597 363d 4640 9b3c ecf3 b93c
000000c0: 4c77 e53c 9baf 753e f180 d9bb 9d4b 4f3d
000000d0: bc95 603c 6658 f43b b22f d0bb 2a03 aebc
000000e0: 2e98 393d af38 b73a d0c8 a9bd e964 61bd
000000f0: 0f58 0bbd 2c32 88bd cbf4 05be 2ee8 923d
00000100: 1a89 2bbe 748c 1fbd 7bcf f5bd 5a41 223e
00000110: 49b3 4d3d 9170 81bd 4f31 e33d 7661 883d
00000120: 8837 cebd 2349 86bb 7503 aebb 519c 9abd
00000130: aed3 79bd 9a77 42be 5116 84bd 775b 91bd
00000140: 16bd bd3d b7b6 ea3c 400d 06be 7964 c13d
00000150: 53b7 033b fae4 84bd 5c01 90be cacf 813c
00000160: 7540 c63d 92d3 aa3c d3fb ec3c d51a 423d
00000170: e04f 94bd 50ce 08be bda6 4d3c 1fe8 053e
00000180: 42d0 69bc ca87 99bd 14e1 603e c5e1 4c3d
00000190: 4b97 9b3d fcc5 23be f2c6 babc f818 ebbd
000001a0: 4f25 af3d e83b 40bd 7011 87bb 43cf 2bbc
000001b0: 6986 393d c10b ba3c c34a 0a3c ecaa 0f3e
000001c0: 9fa5 12bc 1565 35bb 9151 57bd 493a bdbc
000001d0: ae5f 343d 80ff 923c a23e 673d 28af 75be
000001e0: ee9b 893d acdd 57be 3a42 84be c035 7e3c
000001f0: 4632 0fbe aa6c 02b8 5f99 783e fab6 0b3e
00000200: 43a9 a53c dc2a adbd eb6b df3d 08ba 8bbc
00000210: e5b6 f5bd 170a 8fbd 7078 e0bd 5cc3 063e
00000220: e6ee 893c 2813 153c 42a8 e43d 15fd ac3d
00000230: d6fd 023d c90b 41bd f99a 863d c230 6fbc
00000240: 540b 4cbd c1c2 2dbe 7f0d 59be ce39 92bd
00000250: 759c 863d 0602 8dbb 1e72 eb3d 3b90 0c3d
00000260: 4622 2bbd 4be3 103e 4e82 663d 37b1 3a3e
00000270: 4b71 44bd f14a 0e3d 3d16 753e 9e9b 16be
00000280: e93a ec3c e9e5 09be c067 95bc ae70 0e3e
00000290: 46e4 c43d b342 49be 24e0 9a3e 4ae3 c93d
000002a0: 18d3 24be 8a8a b3bd 90d9 783d 31d2 24ba
000002b0: 14be 533e c937 003e 60f2 f3bd 163b f53b
000002c0: 0f3a 723e c39c 773e 4958 343c 26ec b9bd
000002d0: 217e 49bd 733f 873d d091 debd c5ee 80bb
000002e0: 5e3e 653e 7da1 67bd a653 40be 7df3 2c3e
000002f0: 1ef0 fcbc 81fb 5e3e 819b 37be ae3c 82bd
00000300: cb0a 183e 6843 303e e2c4 453e 5989 aebe
00000310: dee1 313e 5f24 d7bd 8b6a 25bd 58bf 15be
00000320: 8a8d 813e 20e7 99bd cb81 683e 6ff2 553c
00000330: cba3 51bc 3401 babd f3ce f1bd d206 913d
00000340: 7be4 c63d bf43 c1bd 3a9e d73c 394f 9b3c
00000350: 1329 3dbe fea4 d63a 2f80 d8bd 4ae7 c8be
00000360: 27d3 86be 7dce 8f3e fc00 5c3e ecae 25be
00000370: 45f3 173e 52d2 473e e1a6 91bd d6ef 393d
00000380: a7b5 4dbe 1c38 133e 96c4 8d3e 88fe 953e
00000390: 8aca 81be 8f66 bcbd 8413 b93d 7949 f9bd
000003a0: f93b 103d 1b53 7e3d 0712 16be 2f2c d7bd
000003b0: 0332 6c3e a516 8bbe b8cc 913d 4371 383d
000003c0: 3ea2 063d d4de 8dbc e2eb 313d 1228 893d
000003d0: cf98 5f3e 3324 53bd 1ec2 903d 8f16 f7bd
000003e0: a10d 533d 0743 12be 2fe4 05be 8fba a63d
000003f0: 08cc 0fbe f42f 123d f62b 4bbd d193 653d

bias f4 [10]
-3.3763697 -3.1518364 -2.6816828 -2.859365 -2.596834 -2.3336825 -3.0460021 -2.799705
-3.4368973 -2.6293504
00000000: 7116 58c0 b0b7 49c0 b1a0 2bc0 d6ff 36c0
00000010: 8732 26c0 0e5b 15c0 b3f1 42c0 5e2e 33c0
00000020: 20f6 5bc0 4747 28c0

weight f4 [2, 10]
0.26888847 0.050913002 -0.01331174 0.073498815 0.031732175 -0.1331039 0.009877772 -0.24355757
-0.25582668 -0.17812248 0.31395388 -0.001151601 8.72018e-05 0.048830405 -0.08044666 -0.14246036
0.041417755 -0.26305908 -0.23669529 -0.16066034
00000000: c0ab 893e 278a 503d 7c19 5abc 8c86 963d
00000010: 99f9 013d 644c 08be 61d6 213c 2867 79be
00000020: b7fb 82be bd65 36be 90be a03e 51f1 96ba
00000030: 1ce0 b638 6402 483d 38c1 a4bd 21e1 11be
00000040: aaa5 293d aeaf 86be 4060 72be 2584 24be

bias f4 [2]
-0.049893193 0.14141935
00000000: ce5c 4cbd 3cd0 103e
